{"config": [{"config": {"layers": [{"config": {"dtype": "float32", "name": "input_1", "batch_input_shape": [null, null, null, 3], "sparse": false}, "name": "input_1", "inbound_nodes": [], "class_name": "InputLayer"}, {"config": {"kernel_initializer": {"config": {"mode": "fan_avg", "scale": 1.0, "distribution": "uniform", "dtype": "float32", "seed": null}, "class_name": "VarianceScaling"}, "kernel_size": [7, 7], "dtype": "float32", "dilation_rate": [1, 1], "kernel_constraint": null, "trainable": true, "activation": "linear", "data_format": "channels_last", "activity_regularizer": null, "padding": "same", "name": "conv1", "bias_constraint": null, "filters": 64, "bias_regularizer": null, "use_bias": true, "bias_initializer": {"config": {"dtype": "float32"}, "class_name": "Zeros"}, "kernel_regularizer": null, "strides": [2, 2]}, "name": "conv1", "inbound_nodes": [[["input_1", 0, 0, {}]]], "class_name": "Conv2D"}, {"config": {"gamma_initializer": {"config": {"dtype": "float32"}, "class_name": "Ones"}, "moving_mean_initializer": {"config": {"dtype": "float32"}, "class_name": "Zeros"}, "beta_initializer": {"config": {"dtype": "float32"}, "class_name": "Zeros"}, "beta_regularizer": null, "dtype": "float32", "axis": [3], "moving_variance_initializer": {"config": {"dtype": "float32"}, "class_name": "Ones"}, "trainable": true, "momentum": 0.99, "epsilon": 0.001, "beta_constraint": null, "scale": true, "name": "bn_conv1", "gamma_regularizer": null, "center": true, "gamma_constraint": null}, "name": "bn_conv1", "inbound_nodes": [[["conv1", 0, 0, {}]]], "class_name": "BatchNormalization"}, {"config": {"trainable": true, "activation": "relu", "dtype": "float32", "name": "activation"}, "name": "activation", "inbound_nodes": [[["bn_conv1", 0, 0, {}]]], "class_name": "Activation"}, {"config": {"pool_size": [3, 3], "data_format": "channels_last", "dtype": "float32", "name": "max_pooling2d", "trainable": true, "padding": "valid", "strides": [2, 2]}, "name": "max_pooling2d", "inbound_nodes": [[["activation", 0, 0, {}]]], "class_name": "MaxPooling2D"}, {"config": {"kernel_initializer": {"config": {"mode": "fan_avg", "scale": 1.0, "distribution": "uniform", "dtype": "float32", "seed": null}, "class_name": "VarianceScaling"}, "kernel_size": [1, 1], "dtype": "float32", "dilation_rate": [1, 1], "kernel_constraint": null, "trainable": true, "activation": "linear", "data_format": "channels_last", "activity_regularizer": null, "padding": "valid", "name": "res2a_branch2a", "bias_constraint": null, "filters": 64, "bias_regularizer": null, "use_bias": true, "bias_initializer": {"config": {"dtype": "float32"}, "class_name": "Zeros"}, "kernel_regularizer": null, "strides": [1, 1]}, "name": "res2a_branch2a", "inbound_nodes": [[["max_pooling2d", 0, 0, {}]]], "class_name": "Conv2D"}, {"config": {"gamma_initializer": {"config": {"dtype": "float32"}, "class_name": "Ones"}, "moving_mean_initializer": {"config": {"dtype": "float32"}, "class_name": "Zeros"}, "beta_initializer": {"config": {"dtype": "float32"}, "class_name": "Zeros"}, "beta_regularizer": null, "dtype": "float32", "axis": [3], "moving_variance_initializer": {"config": {"dtype": "float32"}, "class_name": "Ones"}, "trainable": true, "momentum": 0.99, "epsilon": 0.001, "beta_constraint": null, "scale": true, "name": "bn2a_branch2a", "gamma_regularizer": null, "center": true, "gamma_constraint": null}, "name": "bn2a_branch2a", "inbound_nodes": [[["res2a_branch2a", 0, 0, {}]]], "class_name": "BatchNormalization"}, {"config": {"trainable": true, "activation": "relu", "dtype": "float32", "name": "activation_1"}, "name": "activation_1", "inbound_nodes": [[["bn2a_branch2a", 0, 0, {}]]], "class_name": "Activation"}, {"config": {"kernel_initializer": {"config": {"mode": "fan_avg", "scale": 1.0, "distribution": "uniform", "dtype": "float32", "seed": null}, "class_name": "VarianceScaling"}, "kernel_size": [3, 3], "dtype": "float32", "dilation_rate": [1, 1], "kernel_constraint": null, "trainable": true, "activation": "linear", "data_format": "channels_last", "activity_regularizer": null, "padding": "same", "name": "res2a_branch2b", "bias_constraint": null, "filters": 64, "bias_regularizer": null, "use_bias": true, "bias_initializer": {"config": {"dtype": "float32"}, "class_name": "Zeros"}, "kernel_regularizer": null, "strides": [1, 1]}, "name": "res2a_branch2b", "inbound_nodes": [[["activation_1", 0, 0, {}]]], "class_name": "Conv2D"}, {"config": {"gamma_initializer": {"config": {"dtype": "float32"}, "class_name": "Ones"}, "moving_mean_initializer": {"config": {"dtype": "float32"}, "class_name": "Zeros"}, "beta_initializer": {"config": {"dtype": "float32"}, "class_name": "Zeros"}, "beta_regularizer": null, "dtype": "float32", "axis": [3], "moving_variance_initializer": {"config": {"dtype": "float32"}, "class_name": "Ones"}, "trainable": true, "momentum": 0.99, "epsilon": 0.001, "beta_constraint": null, "scale": true, "name": "bn2a_branch2b", "gamma_regularizer": null, "center": true, "gamma_constraint": null}, "name": "bn2a_branch2b", "inbound_nodes": [[["res2a_branch2b", 0, 0, {}]]], "class_name": "BatchNormalization"}, {"config": {"trainable": true, "activation": "relu", "dtype": "float32", "name": "activation_2"}, "name": "activation_2", "inbound_nodes": [[["bn2a_branch2b", 0, 0, {}]]], "class_name": "Activation"}, {"config": {"kernel_initializer": {"config": {"mode": "fan_avg", "scale": 1.0, "distribution": "uniform", "dtype": "float32", "seed": null}, "class_name": "VarianceScaling"}, "kernel_size": [1, 1], "dtype": "float32", "dilation_rate": [1, 1], "kernel_constraint": null, "trainable": true, "activation": "linear", "data_format": "channels_last", "activity_regularizer": null, "padding": "valid", "name": "res2a_branch2c", "bias_constraint": null, "filters": 256, "bias_regularizer": null, "use_bias": true, "bias_initializer": {"config": {"dtype": "float32"}, "class_name": "Zeros"}, "kernel_regularizer": null, "strides": [1, 1]}, "name": "res2a_branch2c", "inbound_nodes": [[["activation_2", 0, 0, {}]]], "class_name": "Conv2D"}, {"config": {"kernel_initializer": {"config": {"mode": "fan_avg", "scale": 1.0, "distribution": "uniform", "dtype": "float32", "seed": null}, "class_name": "VarianceScaling"}, "kernel_size": [1, 1], "dtype": "float32", "dilation_rate": [1, 1], "kernel_constraint": null, "trainable": true, "activation": "linear", "data_format": "channels_last", "activity_regularizer": null, "padding": "valid", "name": "res2a_branch1", "bias_constraint": null, "filters": 256, "bias_regularizer": null, "use_bias": true, "bias_initializer": {"config": {"dtype": "float32"}, "class_name": "Zeros"}, "kernel_regularizer": null, "strides": [1, 1]}, "name": "res2a_branch1", "inbound_nodes": [[["max_pooling2d", 0, 0, {}]]], "class_name": "Conv2D"}, {"config": {"gamma_initializer": {"config": {"dtype": "float32"}, "class_name": "Ones"}, "moving_mean_initializer": {"config": {"dtype": "float32"}, "class_name": "Zeros"}, "beta_initializer": {"config": {"dtype": "float32"}, "class_name": "Zeros"}, "beta_regularizer": null, "dtype": "float32", "axis": [3], "moving_variance_initializer": {"config": {"dtype": "float32"}, "class_name": "Ones"}, "trainable": true, "momentum": 0.99, "epsilon": 0.001, "beta_constraint": null, "scale": true, "name": "bn2a_branch2c", "gamma_regularizer": null, "center": true, "gamma_constraint": null}, "name": "bn2a_branch2c", "inbound_nodes": [[["res2a_branch2c", 0, 0, {}]]], "class_name": "BatchNormalization"}, {"config": {"gamma_initializer": {"config": {"dtype": "float32"}, "class_name": "Ones"}, "moving_mean_initializer": {"config": {"dtype": "float32"}, "class_name": "Zeros"}, "beta_initializer": {"config": {"dtype": "float32"}, "class_name": "Zeros"}, "beta_regularizer": null, "dtype": "float32", "axis": [3], "moving_variance_initializer": {"config": {"dtype": "float32"}, "class_name": "Ones"}, "trainable": true, "momentum": 0.99, "epsilon": 0.001, "beta_constraint": null, "scale": true, "name": "bn2a_branch1", "gamma_regularizer": null, "center": true, "gamma_constraint": null}, "name": "bn2a_branch1", "inbound_nodes": [[["res2a_branch1", 0, 0, {}]]], "class_name": "BatchNormalization"}, {"config": {"trainable": true, "dtype": "float32", "name": "add"}, "name": "add", "inbound_nodes": [[["bn2a_branch2c", 0, 0, {}], ["bn2a_branch1", 0, 0, {}]]], "class_name": "Add"}, {"config": {"trainable": true, "activation": "relu", "dtype": "float32", "name": "activation_3"}, "name": "activation_3", "inbound_nodes": [[["add", 0, 0, {}]]], "class_name": "Activation"}, {"config": {"kernel_initializer": {"config": {"mode": "fan_avg", "scale": 1.0, "distribution": "uniform", "dtype": "float32", "seed": null}, "class_name": "VarianceScaling"}, "kernel_size": [1, 1], "dtype": "float32", "dilation_rate": [1, 1], "kernel_constraint": null, "trainable": true, "activation": "linear", "data_format": "channels_last", "activity_regularizer": null, "padding": "valid", "name": "res2b_branch2a", "bias_constraint": null, "filters": 64, "bias_regularizer": null, "use_bias": true, "bias_initializer": {"config": {"dtype": "float32"}, "class_name": "Zeros"}, "kernel_regularizer": null, "strides": [1, 1]}, "name": "res2b_branch2a", "inbound_nodes": [[["activation_3", 0, 0, {}]]], "class_name": "Conv2D"}, {"config": {"gamma_initializer": {"config": {"dtype": "float32"}, "class_name": "Ones"}, "moving_mean_initializer": {"config": {"dtype": "float32"}, "class_name": "Zeros"}, "beta_initializer": {"config": {"dtype": "float32"}, "class_name": "Zeros"}, "beta_regularizer": null, "dtype": "float32", "axis": [3], "moving_variance_initializer": {"config": {"dtype": "float32"}, "class_name": "Ones"}, "trainable": true, "momentum": 0.99, "epsilon": 0.001, "beta_constraint": null, "scale": true, "name": "bn2b_branch2a", "gamma_regularizer": null, "center": true, "gamma_constraint": null}, "name": "bn2b_branch2a", "inbound_nodes": [[["res2b_branch2a", 0, 0, {}]]], "class_name": "BatchNormalization"}, {"config": {"trainable": true, "activation": "relu", "dtype": "float32", "name": "activation_4"}, "name": "activation_4", "inbound_nodes": [[["bn2b_branch2a", 0, 0, {}]]], "class_name": "Activation"}, {"config": {"kernel_initializer": {"config": {"mode": "fan_avg", "scale": 1.0, "distribution": "uniform", "dtype": "float32", "seed": null}, "class_name": "VarianceScaling"}, "kernel_size": [3, 3], "dtype": "float32", "dilation_rate": [1, 1], "kernel_constraint": null, "trainable": true, "activation": "linear", "data_format": "channels_last", "activity_regularizer": null, "padding": "same", "name": "res2b_branch2b", "bias_constraint": null, "filters": 64, "bias_regularizer": null, "use_bias": true, "bias_initializer": {"config": {"dtype": "float32"}, "class_name": "Zeros"}, "kernel_regularizer": null, "strides": [1, 1]}, "name": "res2b_branch2b", "inbound_nodes": [[["activation_4", 0, 0, {}]]], "class_name": "Conv2D"}, {"config": {"gamma_initializer": {"config": {"dtype": "float32"}, "class_name": "Ones"}, "moving_mean_initializer": {"config": {"dtype": "float32"}, "class_name": "Zeros"}, "beta_initializer": {"config": {"dtype": "float32"}, "class_name": "Zeros"}, "beta_regularizer": null, "dtype": "float32", "axis": [3], "moving_variance_initializer": {"config": {"dtype": "float32"}, "class_name": "Ones"}, "trainable": true, "momentum": 0.99, "epsilon": 0.001, "beta_constraint": null, "scale": true, "name": "bn2b_branch2b", "gamma_regularizer": null, "center": true, "gamma_constraint": null}, "name": "bn2b_branch2b", "inbound_nodes": [[["res2b_branch2b", 0, 0, {}]]], "class_name": "BatchNormalization"}, {"config": {"trainable": true, "activation": "relu", "dtype": "float32", "name": "activation_5"}, "name": "activation_5", "inbound_nodes": [[["bn2b_branch2b", 0, 0, {}]]], "class_name": "Activation"}, {"config": {"kernel_initializer": {"config": {"mode": "fan_avg", "scale": 1.0, "distribution": "uniform", "dtype": "float32", "seed": null}, "class_name": "VarianceScaling"}, "kernel_size": [1, 1], "dtype": "float32", "dilation_rate": [1, 1], "kernel_constraint": null, "trainable": true, "activation": "linear", "data_format": "channels_last", "activity_regularizer": null, "padding": "valid", "name": "res2b_branch2c", "bias_constraint": null, "filters": 256, "bias_regularizer": null, "use_bias": true, "bias_initializer": {"config": {"dtype": "float32"}, "class_name": "Zeros"}, "kernel_regularizer": null, "strides": [1, 1]}, "name": "res2b_branch2c", "inbound_nodes": [[["activation_5", 0, 0, {}]]], "class_name": "Conv2D"}, {"config": {"gamma_initializer": {"config": {"dtype": "float32"}, "class_name": "Ones"}, "moving_mean_initializer": {"config": {"dtype": "float32"}, "class_name": "Zeros"}, "beta_initializer": {"config": {"dtype": "float32"}, "class_name": "Zeros"}, "beta_regularizer": null, "dtype": "float32", "axis": [3], "moving_variance_initializer": {"config": {"dtype": "float32"}, "class_name": "Ones"}, "trainable": true, "momentum": 0.99, "epsilon": 0.001, "beta_constraint": null, "scale": true, "name": "bn2b_branch2c", "gamma_regularizer": null, "center": true, "gamma_constraint": null}, "name": "bn2b_branch2c", "inbound_nodes": [[["res2b_branch2c", 0, 0, {}]]], "class_name": "BatchNormalization"}, {"config": {"trainable": true, "dtype": "float32", "name": "add_1"}, "name": "add_1", "inbound_nodes": [[["bn2b_branch2c", 0, 0, {}], ["activation_3", 0, 0, {}]]], "class_name": "Add"}, {"config": {"trainable": true, "activation": "relu", "dtype": "float32", "name": "activation_6"}, "name": "activation_6", "inbound_nodes": [[["add_1", 0, 0, {}]]], "class_name": "Activation"}, {"config": {"kernel_initializer": {"config": {"mode": "fan_avg", "scale": 1.0, "distribution": "uniform", "dtype": "float32", "seed": null}, "class_name": "VarianceScaling"}, "kernel_size": [1, 1], "dtype": "float32", "dilation_rate": [1, 1], "kernel_constraint": null, "trainable": true, "activation": "linear", "data_format": "channels_last", "activity_regularizer": null, "padding": "valid", "name": "res2c_branch2a", "bias_constraint": null, "filters": 64, "bias_regularizer": null, "use_bias": true, "bias_initializer": {"config": {"dtype": "float32"}, "class_name": "Zeros"}, "kernel_regularizer": null, "strides": [1, 1]}, "name": "res2c_branch2a", "inbound_nodes": [[["activation_6", 0, 0, {}]]], "class_name": "Conv2D"}, {"config": {"gamma_initializer": {"config": {"dtype": "float32"}, "class_name": "Ones"}, "moving_mean_initializer": {"config": {"dtype": "float32"}, "class_name": "Zeros"}, "beta_initializer": {"config": {"dtype": "float32"}, "class_name": "Zeros"}, "beta_regularizer": null, "dtype": "float32", "axis": [3], "moving_variance_initializer": {"config": {"dtype": "float32"}, "class_name": "Ones"}, "trainable": true, "momentum": 0.99, "epsilon": 0.001, "beta_constraint": null, "scale": true, "name": "bn2c_branch2a", "gamma_regularizer": null, "center": true, "gamma_constraint": null}, "name": "bn2c_branch2a", "inbound_nodes": [[["res2c_branch2a", 0, 0, {}]]], "class_name": "BatchNormalization"}, {"config": {"trainable": true, "activation": "relu", "dtype": "float32", "name": "activation_7"}, "name": "activation_7", "inbound_nodes": [[["bn2c_branch2a", 0, 0, {}]]], "class_name": "Activation"}, {"config": {"kernel_initializer": {"config": {"mode": "fan_avg", "scale": 1.0, "distribution": "uniform", "dtype": "float32", "seed": null}, "class_name": "VarianceScaling"}, "kernel_size": [3, 3], "dtype": "float32", "dilation_rate": [1, 1], "kernel_constraint": null, "trainable": true, "activation": "linear", "data_format": "channels_last", "activity_regularizer": null, "padding": "same", "name": "res2c_branch2b", "bias_constraint": null, "filters": 64, "bias_regularizer": null, "use_bias": true, "bias_initializer": {"config": {"dtype": "float32"}, "class_name": "Zeros"}, "kernel_regularizer": null, "strides": [1, 1]}, "name": "res2c_branch2b", "inbound_nodes": [[["activation_7", 0, 0, {}]]], "class_name": "Conv2D"}, {"config": {"gamma_initializer": {"config": {"dtype": "float32"}, "class_name": "Ones"}, "moving_mean_initializer": {"config": {"dtype": "float32"}, "class_name": "Zeros"}, "beta_initializer": {"config": {"dtype": "float32"}, "class_name": "Zeros"}, "beta_regularizer": null, "dtype": "float32", "axis": [3], "moving_variance_initializer": {"config": {"dtype": "float32"}, "class_name": "Ones"}, "trainable": true, "momentum": 0.99, "epsilon": 0.001, "beta_constraint": null, "scale": true, "name": "bn2c_branch2b", "gamma_regularizer": null, "center": true, "gamma_constraint": null}, "name": "bn2c_branch2b", "inbound_nodes": [[["res2c_branch2b", 0, 0, {}]]], "class_name": "BatchNormalization"}, {"config": {"trainable": true, "activation": "relu", "dtype": "float32", "name": "activation_8"}, "name": "activation_8", "inbound_nodes": [[["bn2c_branch2b", 0, 0, {}]]], "class_name": "Activation"}, {"config": {"kernel_initializer": {"config": {"mode": "fan_avg", "scale": 1.0, "distribution": "uniform", "dtype": "float32", "seed": null}, "class_name": "VarianceScaling"}, "kernel_size": [1, 1], "dtype": "float32", "dilation_rate": [1, 1], "kernel_constraint": null, "trainable": true, "activation": "linear", "data_format": "channels_last", "activity_regularizer": null, "padding": "valid", "name": "res2c_branch2c", "bias_constraint": null, "filters": 256, "bias_regularizer": null, "use_bias": true, "bias_initializer": {"config": {"dtype": "float32"}, "class_name": "Zeros"}, "kernel_regularizer": null, "strides": [1, 1]}, "name": "res2c_branch2c", "inbound_nodes": [[["activation_8", 0, 0, {}]]], "class_name": "Conv2D"}, {"config": {"gamma_initializer": {"config": {"dtype": "float32"}, "class_name": "Ones"}, "moving_mean_initializer": {"config": {"dtype": "float32"}, "class_name": "Zeros"}, "beta_initializer": {"config": {"dtype": "float32"}, "class_name": "Zeros"}, "beta_regularizer": null, "dtype": "float32", "axis": [3], "moving_variance_initializer": {"config": {"dtype": "float32"}, "class_name": "Ones"}, "trainable": true, "momentum": 0.99, "epsilon": 0.001, "beta_constraint": null, "scale": true, "name": "bn2c_branch2c", "gamma_regularizer": null, "center": true, "gamma_constraint": null}, "name": "bn2c_branch2c", "inbound_nodes": [[["res2c_branch2c", 0, 0, {}]]], "class_name": "BatchNormalization"}, {"config": {"trainable": true, "dtype": "float32", "name": "add_2"}, "name": "add_2", "inbound_nodes": [[["bn2c_branch2c", 0, 0, {}], ["activation_6", 0, 0, {}]]], "class_name": "Add"}, {"config": {"trainable": true, "activation": "relu", "dtype": "float32", "name": "activation_9"}, "name": "activation_9", "inbound_nodes": [[["add_2", 0, 0, {}]]], "class_name": "Activation"}, {"config": {"kernel_initializer": {"config": {"mode": "fan_avg", "scale": 1.0, "distribution": "uniform", "dtype": "float32", "seed": null}, "class_name": "VarianceScaling"}, "kernel_size": [1, 1], "dtype": "float32", "dilation_rate": [1, 1], "kernel_constraint": null, "trainable": true, "activation": "linear", "data_format": "channels_last", "activity_regularizer": null, "padding": "valid", "name": "res3a_branch2a", "bias_constraint": null, "filters": 128, "bias_regularizer": null, "use_bias": true, "bias_initializer": {"config": {"dtype": "float32"}, "class_name": "Zeros"}, "kernel_regularizer": null, "strides": [2, 2]}, "name": "res3a_branch2a", "inbound_nodes": [[["activation_9", 0, 0, {}]]], "class_name": "Conv2D"}, {"config": {"gamma_initializer": {"config": {"dtype": "float32"}, "class_name": "Ones"}, "moving_mean_initializer": {"config": {"dtype": "float32"}, "class_name": "Zeros"}, "beta_initializer": {"config": {"dtype": "float32"}, "class_name": "Zeros"}, "beta_regularizer": null, "dtype": "float32", "axis": [3], "moving_variance_initializer": {"config": {"dtype": "float32"}, "class_name": "Ones"}, "trainable": true, "momentum": 0.99, "epsilon": 0.001, "beta_constraint": null, "scale": true, "name": "bn3a_branch2a", "gamma_regularizer": null, "center": true, "gamma_constraint": null}, "name": "bn3a_branch2a", "inbound_nodes": [[["res3a_branch2a", 0, 0, {}]]], "class_name": "BatchNormalization"}, {"config": {"trainable": true, "activation": "relu", "dtype": "float32", "name": "activation_10"}, "name": "activation_10", "inbound_nodes": [[["bn3a_branch2a", 0, 0, {}]]], "class_name": "Activation"}, {"config": {"kernel_initializer": {"config": {"mode": "fan_avg", "scale": 1.0, "distribution": "uniform", "dtype": "float32", "seed": null}, "class_name": "VarianceScaling"}, "kernel_size": [3, 3], "dtype": "float32", "dilation_rate": [1, 1], "kernel_constraint": null, "trainable": true, "activation": "linear", "data_format": "channels_last", "activity_regularizer": null, "padding": "same", "name": "res3a_branch2b", "bias_constraint": null, "filters": 128, "bias_regularizer": null, "use_bias": true, "bias_initializer": {"config": {"dtype": "float32"}, "class_name": "Zeros"}, "kernel_regularizer": null, "strides": [1, 1]}, "name": "res3a_branch2b", "inbound_nodes": [[["activation_10", 0, 0, {}]]], "class_name": "Conv2D"}, {"config": {"gamma_initializer": {"config": {"dtype": "float32"}, "class_name": "Ones"}, "moving_mean_initializer": {"config": {"dtype": "float32"}, "class_name": "Zeros"}, "beta_initializer": {"config": {"dtype": "float32"}, "class_name": "Zeros"}, "beta_regularizer": null, "dtype": "float32", "axis": [3], "moving_variance_initializer": {"config": {"dtype": "float32"}, "class_name": "Ones"}, "trainable": true, "momentum": 0.99, "epsilon": 0.001, "beta_constraint": null, "scale": true, "name": "bn3a_branch2b", "gamma_regularizer": null, "center": true, "gamma_constraint": null}, "name": "bn3a_branch2b", "inbound_nodes": [[["res3a_branch2b", 0, 0, {}]]], "class_name": "BatchNormalization"}, {"config": {"trainable": true, "activation": "relu", "dtype": "float32", "name": "activation_11"}, "name": "activation_11", "inbound_nodes": [[["bn3a_branch2b", 0, 0, {}]]], "class_name": "Activation"}, {"config": {"kernel_initializer": {"config": {"mode": "fan_avg", "scale": 1.0, "distribution": "uniform", "dtype": "float32", "seed": null}, "class_name": "VarianceScaling"}, "kernel_size": [1, 1], "dtype": "float32", "dilation_rate": [1, 1], "kernel_constraint": null, "trainable": true, "activation": "linear", "data_format": "channels_last", "activity_regularizer": null, "padding": "valid", "name": "res3a_branch2c", "bias_constraint": null, "filters": 512, "bias_regularizer": null, "use_bias": true, "bias_initializer": {"config": {"dtype": "float32"}, "class_name": "Zeros"}, "kernel_regularizer": null, "strides": [1, 1]}, "name": "res3a_branch2c", "inbound_nodes": [[["activation_11", 0, 0, {}]]], "class_name": "Conv2D"}, {"config": {"kernel_initializer": {"config": {"mode": "fan_avg", "scale": 1.0, "distribution": "uniform", "dtype": "float32", "seed": null}, "class_name": "VarianceScaling"}, "kernel_size": [1, 1], "dtype": "float32", "dilation_rate": [1, 1], "kernel_constraint": null, "trainable": true, "activation": "linear", "data_format": "channels_last", "activity_regularizer": null, "padding": "valid", "name": "res3a_branch1", "bias_constraint": null, "filters": 512, "bias_regularizer": null, "use_bias": true, "bias_initializer": {"config": {"dtype": "float32"}, "class_name": "Zeros"}, "kernel_regularizer": null, "strides": [2, 2]}, "name": "res3a_branch1", "inbound_nodes": [[["activation_9", 0, 0, {}]]], "class_name": "Conv2D"}, {"config": {"gamma_initializer": {"config": {"dtype": "float32"}, "class_name": "Ones"}, "moving_mean_initializer": {"config": {"dtype": "float32"}, "class_name": "Zeros"}, "beta_initializer": {"config": {"dtype": "float32"}, "class_name": "Zeros"}, "beta_regularizer": null, "dtype": "float32", "axis": [3], "moving_variance_initializer": {"config": {"dtype": "float32"}, "class_name": "Ones"}, "trainable": true, "momentum": 0.99, "epsilon": 0.001, "beta_constraint": null, "scale": true, "name": "bn3a_branch2c", "gamma_regularizer": null, "center": true, "gamma_constraint": null}, "name": "bn3a_branch2c", "inbound_nodes": [[["res3a_branch2c", 0, 0, {}]]], "class_name": "BatchNormalization"}, {"config": {"gamma_initializer": {"config": {"dtype": "float32"}, "class_name": "Ones"}, "moving_mean_initializer": {"config": {"dtype": "float32"}, "class_name": "Zeros"}, "beta_initializer": {"config": {"dtype": "float32"}, "class_name": "Zeros"}, "beta_regularizer": null, "dtype": "float32", "axis": [3], "moving_variance_initializer": {"config": {"dtype": "float32"}, "class_name": "Ones"}, "trainable": true, "momentum": 0.99, "epsilon": 0.001, "beta_constraint": null, "scale": true, "name": "bn3a_branch1", "gamma_regularizer": null, "center": true, "gamma_constraint": null}, "name": "bn3a_branch1", "inbound_nodes": [[["res3a_branch1", 0, 0, {}]]], "class_name": "BatchNormalization"}, {"config": {"trainable": true, "dtype": "float32", "name": "add_3"}, "name": "add_3", "inbound_nodes": [[["bn3a_branch2c", 0, 0, {}], ["bn3a_branch1", 0, 0, {}]]], "class_name": "Add"}, {"config": {"trainable": true, "activation": "relu", "dtype": "float32", "name": "activation_12"}, "name": "activation_12", "inbound_nodes": [[["add_3", 0, 0, {}]]], "class_name": "Activation"}, {"config": {"kernel_initializer": {"config": {"mode": "fan_avg", "scale": 1.0, "distribution": "uniform", "dtype": "float32", "seed": null}, "class_name": "VarianceScaling"}, "kernel_size": [1, 1], "dtype": "float32", "dilation_rate": [1, 1], "kernel_constraint": null, "trainable": true, "activation": "linear", "data_format": "channels_last", "activity_regularizer": null, "padding": "valid", "name": "res3b_branch2a", "bias_constraint": null, "filters": 128, "bias_regularizer": null, "use_bias": true, "bias_initializer": {"config": {"dtype": "float32"}, "class_name": "Zeros"}, "kernel_regularizer": null, "strides": [1, 1]}, "name": "res3b_branch2a", "inbound_nodes": [[["activation_12", 0, 0, {}]]], "class_name": "Conv2D"}, {"config": {"gamma_initializer": {"config": {"dtype": "float32"}, "class_name": "Ones"}, "moving_mean_initializer": {"config": {"dtype": "float32"}, "class_name": "Zeros"}, "beta_initializer": {"config": {"dtype": "float32"}, "class_name": "Zeros"}, "beta_regularizer": null, "dtype": "float32", "axis": [3], "moving_variance_initializer": {"config": {"dtype": "float32"}, "class_name": "Ones"}, "trainable": true, "momentum": 0.99, "epsilon": 0.001, "beta_constraint": null, "scale": true, "name": "bn3b_branch2a", "gamma_regularizer": null, "center": true, "gamma_constraint": null}, "name": "bn3b_branch2a", "inbound_nodes": [[["res3b_branch2a", 0, 0, {}]]], "class_name": "BatchNormalization"}, {"config": {"trainable": true, "activation": "relu", "dtype": "float32", "name": "activation_13"}, "name": "activation_13", "inbound_nodes": [[["bn3b_branch2a", 0, 0, {}]]], "class_name": "Activation"}, {"config": {"kernel_initializer": {"config": {"mode": "fan_avg", "scale": 1.0, "distribution": "uniform", "dtype": "float32", "seed": null}, "class_name": "VarianceScaling"}, "kernel_size": [3, 3], "dtype": "float32", "dilation_rate": [1, 1], "kernel_constraint": null, "trainable": true, "activation": "linear", "data_format": "channels_last", "activity_regularizer": null, "padding": "same", "name": "res3b_branch2b", "bias_constraint": null, "filters": 128, "bias_regularizer": null, "use_bias": true, "bias_initializer": {"config": {"dtype": "float32"}, "class_name": "Zeros"}, "kernel_regularizer": null, "strides": [1, 1]}, "name": "res3b_branch2b", "inbound_nodes": [[["activation_13", 0, 0, {}]]], "class_name": "Conv2D"}, {"config": {"gamma_initializer": {"config": {"dtype": "float32"}, "class_name": "Ones"}, "moving_mean_initializer": {"config": {"dtype": "float32"}, "class_name": "Zeros"}, "beta_initializer": {"config": {"dtype": "float32"}, "class_name": "Zeros"}, "beta_regularizer": null, "dtype": "float32", "axis": [3], "moving_variance_initializer": {"config": {"dtype": "float32"}, "class_name": "Ones"}, "trainable": true, "momentum": 0.99, "epsilon": 0.001, "beta_constraint": null, "scale": true, "name": "bn3b_branch2b", "gamma_regularizer": null, "center": true, "gamma_constraint": null}, "name": "bn3b_branch2b", "inbound_nodes": [[["res3b_branch2b", 0, 0, {}]]], "class_name": "BatchNormalization"}, {"config": {"trainable": true, "activation": "relu", "dtype": "float32", "name": "activation_14"}, "name": "activation_14", "inbound_nodes": [[["bn3b_branch2b", 0, 0, {}]]], "class_name": "Activation"}, {"config": {"kernel_initializer": {"config": {"mode": "fan_avg", "scale": 1.0, "distribution": "uniform", "dtype": "float32", "seed": null}, "class_name": "VarianceScaling"}, "kernel_size": [1, 1], "dtype": "float32", "dilation_rate": [1, 1], "kernel_constraint": null, "trainable": true, "activation": "linear", "data_format": "channels_last", "activity_regularizer": null, "padding": "valid", "name": "res3b_branch2c", "bias_constraint": null, "filters": 512, "bias_regularizer": null, "use_bias": true, "bias_initializer": {"config": {"dtype": "float32"}, "class_name": "Zeros"}, "kernel_regularizer": null, "strides": [1, 1]}, "name": "res3b_branch2c", "inbound_nodes": [[["activation_14", 0, 0, {}]]], "class_name": "Conv2D"}, {"config": {"gamma_initializer": {"config": {"dtype": "float32"}, "class_name": "Ones"}, "moving_mean_initializer": {"config": {"dtype": "float32"}, "class_name": "Zeros"}, "beta_initializer": {"config": {"dtype": "float32"}, "class_name": "Zeros"}, "beta_regularizer": null, "dtype": "float32", "axis": [3], "moving_variance_initializer": {"config": {"dtype": "float32"}, "class_name": "Ones"}, "trainable": true, "momentum": 0.99, "epsilon": 0.001, "beta_constraint": null, "scale": true, "name": "bn3b_branch2c", "gamma_regularizer": null, "center": true, "gamma_constraint": null}, "name": "bn3b_branch2c", "inbound_nodes": [[["res3b_branch2c", 0, 0, {}]]], "class_name": "BatchNormalization"}, {"config": {"trainable": true, "dtype": "float32", "name": "add_4"}, "name": "add_4", "inbound_nodes": [[["bn3b_branch2c", 0, 0, {}], ["activation_12", 0, 0, {}]]], "class_name": "Add"}, {"config": {"trainable": true, "activation": "relu", "dtype": "float32", "name": "activation_15"}, "name": "activation_15", "inbound_nodes": [[["add_4", 0, 0, {}]]], "class_name": "Activation"}, {"config": {"kernel_initializer": {"config": {"mode": "fan_avg", "scale": 1.0, "distribution": "uniform", "dtype": "float32", "seed": null}, "class_name": "VarianceScaling"}, "kernel_size": [1, 1], "dtype": "float32", "dilation_rate": [1, 1], "kernel_constraint": null, "trainable": true, "activation": "linear", "data_format": "channels_last", "activity_regularizer": null, "padding": "valid", "name": "res3c_branch2a", "bias_constraint": null, "filters": 128, "bias_regularizer": null, "use_bias": true, "bias_initializer": {"config": {"dtype": "float32"}, "class_name": "Zeros"}, "kernel_regularizer": null, "strides": [1, 1]}, "name": "res3c_branch2a", "inbound_nodes": [[["activation_15", 0, 0, {}]]], "class_name": "Conv2D"}, {"config": {"gamma_initializer": {"config": {"dtype": "float32"}, "class_name": "Ones"}, "moving_mean_initializer": {"config": {"dtype": "float32"}, "class_name": "Zeros"}, "beta_initializer": {"config": {"dtype": "float32"}, "class_name": "Zeros"}, "beta_regularizer": null, "dtype": "float32", "axis": [3], "moving_variance_initializer": {"config": {"dtype": "float32"}, "class_name": "Ones"}, "trainable": true, "momentum": 0.99, "epsilon": 0.001, "beta_constraint": null, "scale": true, "name": "bn3c_branch2a", "gamma_regularizer": null, "center": true, "gamma_constraint": null}, "name": "bn3c_branch2a", "inbound_nodes": [[["res3c_branch2a", 0, 0, {}]]], "class_name": "BatchNormalization"}, {"config": {"trainable": true, "activation": "relu", "dtype": "float32", "name": "activation_16"}, "name": "activation_16", "inbound_nodes": [[["bn3c_branch2a", 0, 0, {}]]], "class_name": "Activation"}, {"config": {"kernel_initializer": {"config": {"mode": "fan_avg", "scale": 1.0, "distribution": "uniform", "dtype": "float32", "seed": null}, "class_name": "VarianceScaling"}, "kernel_size": [3, 3], "dtype": "float32", "dilation_rate": [1, 1], "kernel_constraint": null, "trainable": true, "activation": "linear", "data_format": "channels_last", "activity_regularizer": null, "padding": "same", "name": "res3c_branch2b", "bias_constraint": null, "filters": 128, "bias_regularizer": null, "use_bias": true, "bias_initializer": {"config": {"dtype": "float32"}, "class_name": "Zeros"}, "kernel_regularizer": null, "strides": [1, 1]}, "name": "res3c_branch2b", "inbound_nodes": [[["activation_16", 0, 0, {}]]], "class_name": "Conv2D"}, {"config": {"gamma_initializer": {"config": {"dtype": "float32"}, "class_name": "Ones"}, "moving_mean_initializer": {"config": {"dtype": "float32"}, "class_name": "Zeros"}, "beta_initializer": {"config": {"dtype": "float32"}, "class_name": "Zeros"}, "beta_regularizer": null, "dtype": "float32", "axis": [3], "moving_variance_initializer": {"config": {"dtype": "float32"}, "class_name": "Ones"}, "trainable": true, "momentum": 0.99, "epsilon": 0.001, "beta_constraint": null, "scale": true, "name": "bn3c_branch2b", "gamma_regularizer": null, "center": true, "gamma_constraint": null}, "name": "bn3c_branch2b", "inbound_nodes": [[["res3c_branch2b", 0, 0, {}]]], "class_name": "BatchNormalization"}, {"config": {"trainable": true, "activation": "relu", "dtype": "float32", "name": "activation_17"}, "name": "activation_17", "inbound_nodes": [[["bn3c_branch2b", 0, 0, {}]]], "class_name": "Activation"}, {"config": {"kernel_initializer": {"config": {"mode": "fan_avg", "scale": 1.0, "distribution": "uniform", "dtype": "float32", "seed": null}, "class_name": "VarianceScaling"}, "kernel_size": [1, 1], "dtype": "float32", "dilation_rate": [1, 1], "kernel_constraint": null, "trainable": true, "activation": "linear", "data_format": "channels_last", "activity_regularizer": null, "padding": "valid", "name": "res3c_branch2c", "bias_constraint": null, "filters": 512, "bias_regularizer": null, "use_bias": true, "bias_initializer": {"config": {"dtype": "float32"}, "class_name": "Zeros"}, "kernel_regularizer": null, "strides": [1, 1]}, "name": "res3c_branch2c", "inbound_nodes": [[["activation_17", 0, 0, {}]]], "class_name": "Conv2D"}, {"config": {"gamma_initializer": {"config": {"dtype": "float32"}, "class_name": "Ones"}, "moving_mean_initializer": {"config": {"dtype": "float32"}, "class_name": "Zeros"}, "beta_initializer": {"config": {"dtype": "float32"}, "class_name": "Zeros"}, "beta_regularizer": null, "dtype": "float32", "axis": [3], "moving_variance_initializer": {"config": {"dtype": "float32"}, "class_name": "Ones"}, "trainable": true, "momentum": 0.99, "epsilon": 0.001, "beta_constraint": null, "scale": true, "name": "bn3c_branch2c", "gamma_regularizer": null, "center": true, "gamma_constraint": null}, "name": "bn3c_branch2c", "inbound_nodes": [[["res3c_branch2c", 0, 0, {}]]], "class_name": "BatchNormalization"}, {"config": {"trainable": true, "dtype": "float32", "name": "add_5"}, "name": "add_5", "inbound_nodes": [[["bn3c_branch2c", 0, 0, {}], ["activation_15", 0, 0, {}]]], "class_name": "Add"}, {"config": {"trainable": true, "activation": "relu", "dtype": "float32", "name": "activation_18"}, "name": "activation_18", "inbound_nodes": [[["add_5", 0, 0, {}]]], "class_name": "Activation"}, {"config": {"kernel_initializer": {"config": {"mode": "fan_avg", "scale": 1.0, "distribution": "uniform", "dtype": "float32", "seed": null}, "class_name": "VarianceScaling"}, "kernel_size": [1, 1], "dtype": "float32", "dilation_rate": [1, 1], "kernel_constraint": null, "trainable": true, "activation": "linear", "data_format": "channels_last", "activity_regularizer": null, "padding": "valid", "name": "res3d_branch2a", "bias_constraint": null, "filters": 128, "bias_regularizer": null, "use_bias": true, "bias_initializer": {"config": {"dtype": "float32"}, "class_name": "Zeros"}, "kernel_regularizer": null, "strides": [1, 1]}, "name": "res3d_branch2a", "inbound_nodes": [[["activation_18", 0, 0, {}]]], "class_name": "Conv2D"}, {"config": {"gamma_initializer": {"config": {"dtype": "float32"}, "class_name": "Ones"}, "moving_mean_initializer": {"config": {"dtype": "float32"}, "class_name": "Zeros"}, "beta_initializer": {"config": {"dtype": "float32"}, "class_name": "Zeros"}, "beta_regularizer": null, "dtype": "float32", "axis": [3], "moving_variance_initializer": {"config": {"dtype": "float32"}, "class_name": "Ones"}, "trainable": true, "momentum": 0.99, "epsilon": 0.001, "beta_constraint": null, "scale": true, "name": "bn3d_branch2a", "gamma_regularizer": null, "center": true, "gamma_constraint": null}, "name": "bn3d_branch2a", "inbound_nodes": [[["res3d_branch2a", 0, 0, {}]]], "class_name": "BatchNormalization"}, {"config": {"trainable": true, "activation": "relu", "dtype": "float32", "name": "activation_19"}, "name": "activation_19", "inbound_nodes": [[["bn3d_branch2a", 0, 0, {}]]], "class_name": "Activation"}, {"config": {"kernel_initializer": {"config": {"mode": "fan_avg", "scale": 1.0, "distribution": "uniform", "dtype": "float32", "seed": null}, "class_name": "VarianceScaling"}, "kernel_size": [3, 3], "dtype": "float32", "dilation_rate": [1, 1], "kernel_constraint": null, "trainable": true, "activation": "linear", "data_format": "channels_last", "activity_regularizer": null, "padding": "same", "name": "res3d_branch2b", "bias_constraint": null, "filters": 128, "bias_regularizer": null, "use_bias": true, "bias_initializer": {"config": {"dtype": "float32"}, "class_name": "Zeros"}, "kernel_regularizer": null, "strides": [1, 1]}, "name": "res3d_branch2b", "inbound_nodes": [[["activation_19", 0, 0, {}]]], "class_name": "Conv2D"}, {"config": {"gamma_initializer": {"config": {"dtype": "float32"}, "class_name": "Ones"}, "moving_mean_initializer": {"config": {"dtype": "float32"}, "class_name": "Zeros"}, "beta_initializer": {"config": {"dtype": "float32"}, "class_name": "Zeros"}, "beta_regularizer": null, "dtype": "float32", "axis": [3], "moving_variance_initializer": {"config": {"dtype": "float32"}, "class_name": "Ones"}, "trainable": true, "momentum": 0.99, "epsilon": 0.001, "beta_constraint": null, "scale": true, "name": "bn3d_branch2b", "gamma_regularizer": null, "center": true, "gamma_constraint": null}, "name": "bn3d_branch2b", "inbound_nodes": [[["res3d_branch2b", 0, 0, {}]]], "class_name": "BatchNormalization"}, {"config": {"trainable": true, "activation": "relu", "dtype": "float32", "name": "activation_20"}, "name": "activation_20", "inbound_nodes": [[["bn3d_branch2b", 0, 0, {}]]], "class_name": "Activation"}, {"config": {"kernel_initializer": {"config": {"mode": "fan_avg", "scale": 1.0, "distribution": "uniform", "dtype": "float32", "seed": null}, "class_name": "VarianceScaling"}, "kernel_size": [1, 1], "dtype": "float32", "dilation_rate": [1, 1], "kernel_constraint": null, "trainable": true, "activation": "linear", "data_format": "channels_last", "activity_regularizer": null, "padding": "valid", "name": "res3d_branch2c", "bias_constraint": null, "filters": 512, "bias_regularizer": null, "use_bias": true, "bias_initializer": {"config": {"dtype": "float32"}, "class_name": "Zeros"}, "kernel_regularizer": null, "strides": [1, 1]}, "name": "res3d_branch2c", "inbound_nodes": [[["activation_20", 0, 0, {}]]], "class_name": "Conv2D"}, {"config": {"gamma_initializer": {"config": {"dtype": "float32"}, "class_name": "Ones"}, "moving_mean_initializer": {"config": {"dtype": "float32"}, "class_name": "Zeros"}, "beta_initializer": {"config": {"dtype": "float32"}, "class_name": "Zeros"}, "beta_regularizer": null, "dtype": "float32", "axis": [3], "moving_variance_initializer": {"config": {"dtype": "float32"}, "class_name": "Ones"}, "trainable": true, "momentum": 0.99, "epsilon": 0.001, "beta_constraint": null, "scale": true, "name": "bn3d_branch2c", "gamma_regularizer": null, "center": true, "gamma_constraint": null}, "name": "bn3d_branch2c", "inbound_nodes": [[["res3d_branch2c", 0, 0, {}]]], "class_name": "BatchNormalization"}, {"config": {"trainable": true, "dtype": "float32", "name": "add_6"}, "name": "add_6", "inbound_nodes": [[["bn3d_branch2c", 0, 0, {}], ["activation_18", 0, 0, {}]]], "class_name": "Add"}, {"config": {"trainable": true, "activation": "relu", "dtype": "float32", "name": "activation_21"}, "name": "activation_21", "inbound_nodes": [[["add_6", 0, 0, {}]]], "class_name": "Activation"}, {"config": {"kernel_initializer": {"config": {"mode": "fan_avg", "scale": 1.0, "distribution": "uniform", "dtype": "float32", "seed": null}, "class_name": "VarianceScaling"}, "kernel_size": [1, 1], "dtype": "float32", "dilation_rate": [1, 1], "kernel_constraint": null, "trainable": true, "activation": "linear", "data_format": "channels_last", "activity_regularizer": null, "padding": "valid", "name": "res4a_branch2a", "bias_constraint": null, "filters": 256, "bias_regularizer": null, "use_bias": true, "bias_initializer": {"config": {"dtype": "float32"}, "class_name": "Zeros"}, "kernel_regularizer": null, "strides": [2, 2]}, "name": "res4a_branch2a", "inbound_nodes": [[["activation_21", 0, 0, {}]]], "class_name": "Conv2D"}, {"config": {"gamma_initializer": {"config": {"dtype": "float32"}, "class_name": "Ones"}, "moving_mean_initializer": {"config": {"dtype": "float32"}, "class_name": "Zeros"}, "beta_initializer": {"config": {"dtype": "float32"}, "class_name": "Zeros"}, "beta_regularizer": null, "dtype": "float32", "axis": [3], "moving_variance_initializer": {"config": {"dtype": "float32"}, "class_name": "Ones"}, "trainable": true, "momentum": 0.99, "epsilon": 0.001, "beta_constraint": null, "scale": true, "name": "bn4a_branch2a", "gamma_regularizer": null, "center": true, "gamma_constraint": null}, "name": "bn4a_branch2a", "inbound_nodes": [[["res4a_branch2a", 0, 0, {}]]], "class_name": "BatchNormalization"}, {"config": {"trainable": true, "activation": "relu", "dtype": "float32", "name": "activation_22"}, "name": "activation_22", "inbound_nodes": [[["bn4a_branch2a", 0, 0, {}]]], "class_name": "Activation"}, {"config": {"kernel_initializer": {"config": {"mode": "fan_avg", "scale": 1.0, "distribution": "uniform", "dtype": "float32", "seed": null}, "class_name": "VarianceScaling"}, "kernel_size": [3, 3], "dtype": "float32", "dilation_rate": [1, 1], "kernel_constraint": null, "trainable": true, "activation": "linear", "data_format": "channels_last", "activity_regularizer": null, "padding": "same", "name": "res4a_branch2b", "bias_constraint": null, "filters": 256, "bias_regularizer": null, "use_bias": true, "bias_initializer": {"config": {"dtype": "float32"}, "class_name": "Zeros"}, "kernel_regularizer": null, "strides": [1, 1]}, "name": "res4a_branch2b", "inbound_nodes": [[["activation_22", 0, 0, {}]]], "class_name": "Conv2D"}, {"config": {"gamma_initializer": {"config": {"dtype": "float32"}, "class_name": "Ones"}, "moving_mean_initializer": {"config": {"dtype": "float32"}, "class_name": "Zeros"}, "beta_initializer": {"config": {"dtype": "float32"}, "class_name": "Zeros"}, "beta_regularizer": null, "dtype": "float32", "axis": [3], "moving_variance_initializer": {"config": {"dtype": "float32"}, "class_name": "Ones"}, "trainable": true, "momentum": 0.99, "epsilon": 0.001, "beta_constraint": null, "scale": true, "name": "bn4a_branch2b", "gamma_regularizer": null, "center": true, "gamma_constraint": null}, "name": "bn4a_branch2b", "inbound_nodes": [[["res4a_branch2b", 0, 0, {}]]], "class_name": "BatchNormalization"}, {"config": {"trainable": true, "activation": "relu", "dtype": "float32", "name": "activation_23"}, "name": "activation_23", "inbound_nodes": [[["bn4a_branch2b", 0, 0, {}]]], "class_name": "Activation"}, {"config": {"kernel_initializer": {"config": {"mode": "fan_avg", "scale": 1.0, "distribution": "uniform", "dtype": "float32", "seed": null}, "class_name": "VarianceScaling"}, "kernel_size": [1, 1], "dtype": "float32", "dilation_rate": [1, 1], "kernel_constraint": null, "trainable": true, "activation": "linear", "data_format": "channels_last", "activity_regularizer": null, "padding": "valid", "name": "res4a_branch2c", "bias_constraint": null, "filters": 1024, "bias_regularizer": null, "use_bias": true, "bias_initializer": {"config": {"dtype": "float32"}, "class_name": "Zeros"}, "kernel_regularizer": null, "strides": [1, 1]}, "name": "res4a_branch2c", "inbound_nodes": [[["activation_23", 0, 0, {}]]], "class_name": "Conv2D"}, {"config": {"kernel_initializer": {"config": {"mode": "fan_avg", "scale": 1.0, "distribution": "uniform", "dtype": "float32", "seed": null}, "class_name": "VarianceScaling"}, "kernel_size": [1, 1], "dtype": "float32", "dilation_rate": [1, 1], "kernel_constraint": null, "trainable": true, "activation": "linear", "data_format": "channels_last", "activity_regularizer": null, "padding": "valid", "name": "res4a_branch1", "bias_constraint": null, "filters": 1024, "bias_regularizer": null, "use_bias": true, "bias_initializer": {"config": {"dtype": "float32"}, "class_name": "Zeros"}, "kernel_regularizer": null, "strides": [2, 2]}, "name": "res4a_branch1", "inbound_nodes": [[["activation_21", 0, 0, {}]]], "class_name": "Conv2D"}, {"config": {"gamma_initializer": {"config": {"dtype": "float32"}, "class_name": "Ones"}, "moving_mean_initializer": {"config": {"dtype": "float32"}, "class_name": "Zeros"}, "beta_initializer": {"config": {"dtype": "float32"}, "class_name": "Zeros"}, "beta_regularizer": null, "dtype": "float32", "axis": [3], "moving_variance_initializer": {"config": {"dtype": "float32"}, "class_name": "Ones"}, "trainable": true, "momentum": 0.99, "epsilon": 0.001, "beta_constraint": null, "scale": true, "name": "bn4a_branch2c", "gamma_regularizer": null, "center": true, "gamma_constraint": null}, "name": "bn4a_branch2c", "inbound_nodes": [[["res4a_branch2c", 0, 0, {}]]], "class_name": "BatchNormalization"}, {"config": {"gamma_initializer": {"config": {"dtype": "float32"}, "class_name": "Ones"}, "moving_mean_initializer": {"config": {"dtype": "float32"}, "class_name": "Zeros"}, "beta_initializer": {"config": {"dtype": "float32"}, "class_name": "Zeros"}, "beta_regularizer": null, "dtype": "float32", "axis": [3], "moving_variance_initializer": {"config": {"dtype": "float32"}, "class_name": "Ones"}, "trainable": true, "momentum": 0.99, "epsilon": 0.001, "beta_constraint": null, "scale": true, "name": "bn4a_branch1", "gamma_regularizer": null, "center": true, "gamma_constraint": null}, "name": "bn4a_branch1", "inbound_nodes": [[["res4a_branch1", 0, 0, {}]]], "class_name": "BatchNormalization"}, {"config": {"trainable": true, "dtype": "float32", "name": "add_7"}, "name": "add_7", "inbound_nodes": [[["bn4a_branch2c", 0, 0, {}], ["bn4a_branch1", 0, 0, {}]]], "class_name": "Add"}, {"config": {"trainable": true, "activation": "relu", "dtype": "float32", "name": "activation_24"}, "name": "activation_24", "inbound_nodes": [[["add_7", 0, 0, {}]]], "class_name": "Activation"}, {"config": {"kernel_initializer": {"config": {"mode": "fan_avg", "scale": 1.0, "distribution": "uniform", "dtype": "float32", "seed": null}, "class_name": "VarianceScaling"}, "kernel_size": [1, 1], "dtype": "float32", "dilation_rate": [1, 1], "kernel_constraint": null, "trainable": true, "activation": "linear", "data_format": "channels_last", "activity_regularizer": null, "padding": "valid", "name": "res4b_branch2a", "bias_constraint": null, "filters": 256, "bias_regularizer": null, "use_bias": true, "bias_initializer": {"config": {"dtype": "float32"}, "class_name": "Zeros"}, "kernel_regularizer": null, "strides": [1, 1]}, "name": "res4b_branch2a", "inbound_nodes": [[["activation_24", 0, 0, {}]]], "class_name": "Conv2D"}, {"config": {"gamma_initializer": {"config": {"dtype": "float32"}, "class_name": "Ones"}, "moving_mean_initializer": {"config": {"dtype": "float32"}, "class_name": "Zeros"}, "beta_initializer": {"config": {"dtype": "float32"}, "class_name": "Zeros"}, "beta_regularizer": null, "dtype": "float32", "axis": [3], "moving_variance_initializer": {"config": {"dtype": "float32"}, "class_name": "Ones"}, "trainable": true, "momentum": 0.99, "epsilon": 0.001, "beta_constraint": null, "scale": true, "name": "bn4b_branch2a", "gamma_regularizer": null, "center": true, "gamma_constraint": null}, "name": "bn4b_branch2a", "inbound_nodes": [[["res4b_branch2a", 0, 0, {}]]], "class_name": "BatchNormalization"}, {"config": {"trainable": true, "activation": "relu", "dtype": "float32", "name": "activation_25"}, "name": "activation_25", "inbound_nodes": [[["bn4b_branch2a", 0, 0, {}]]], "class_name": "Activation"}, {"config": {"kernel_initializer": {"config": {"mode": "fan_avg", "scale": 1.0, "distribution": "uniform", "dtype": "float32", "seed": null}, "class_name": "VarianceScaling"}, "kernel_size": [3, 3], "dtype": "float32", "dilation_rate": [1, 1], "kernel_constraint": null, "trainable": true, "activation": "linear", "data_format": "channels_last", "activity_regularizer": null, "padding": "same", "name": "res4b_branch2b", "bias_constraint": null, "filters": 256, "bias_regularizer": null, "use_bias": true, "bias_initializer": {"config": {"dtype": "float32"}, "class_name": "Zeros"}, "kernel_regularizer": null, "strides": [1, 1]}, "name": "res4b_branch2b", "inbound_nodes": [[["activation_25", 0, 0, {}]]], "class_name": "Conv2D"}, {"config": {"gamma_initializer": {"config": {"dtype": "float32"}, "class_name": "Ones"}, "moving_mean_initializer": {"config": {"dtype": "float32"}, "class_name": "Zeros"}, "beta_initializer": {"config": {"dtype": "float32"}, "class_name": "Zeros"}, "beta_regularizer": null, "dtype": "float32", "axis": [3], "moving_variance_initializer": {"config": {"dtype": "float32"}, "class_name": "Ones"}, "trainable": true, "momentum": 0.99, "epsilon": 0.001, "beta_constraint": null, "scale": true, "name": "bn4b_branch2b", "gamma_regularizer": null, "center": true, "gamma_constraint": null}, "name": "bn4b_branch2b", "inbound_nodes": [[["res4b_branch2b", 0, 0, {}]]], "class_name": "BatchNormalization"}, {"config": {"trainable": true, "activation": "relu", "dtype": "float32", "name": "activation_26"}, "name": "activation_26", "inbound_nodes": [[["bn4b_branch2b", 0, 0, {}]]], "class_name": "Activation"}, {"config": {"kernel_initializer": {"config": {"mode": "fan_avg", "scale": 1.0, "distribution": "uniform", "dtype": "float32", "seed": null}, "class_name": "VarianceScaling"}, "kernel_size": [1, 1], "dtype": "float32", "dilation_rate": [1, 1], "kernel_constraint": null, "trainable": true, "activation": "linear", "data_format": "channels_last", "activity_regularizer": null, "padding": "valid", "name": "res4b_branch2c", "bias_constraint": null, "filters": 1024, "bias_regularizer": null, "use_bias": true, "bias_initializer": {"config": {"dtype": "float32"}, "class_name": "Zeros"}, "kernel_regularizer": null, "strides": [1, 1]}, "name": "res4b_branch2c", "inbound_nodes": [[["activation_26", 0, 0, {}]]], "class_name": "Conv2D"}, {"config": {"gamma_initializer": {"config": {"dtype": "float32"}, "class_name": "Ones"}, "moving_mean_initializer": {"config": {"dtype": "float32"}, "class_name": "Zeros"}, "beta_initializer": {"config": {"dtype": "float32"}, "class_name": "Zeros"}, "beta_regularizer": null, "dtype": "float32", "axis": [3], "moving_variance_initializer": {"config": {"dtype": "float32"}, "class_name": "Ones"}, "trainable": true, "momentum": 0.99, "epsilon": 0.001, "beta_constraint": null, "scale": true, "name": "bn4b_branch2c", "gamma_regularizer": null, "center": true, "gamma_constraint": null}, "name": "bn4b_branch2c", "inbound_nodes": [[["res4b_branch2c", 0, 0, {}]]], "class_name": "BatchNormalization"}, {"config": {"trainable": true, "dtype": "float32", "name": "add_8"}, "name": "add_8", "inbound_nodes": [[["bn4b_branch2c", 0, 0, {}], ["activation_24", 0, 0, {}]]], "class_name": "Add"}, {"config": {"trainable": true, "activation": "relu", "dtype": "float32", "name": "activation_27"}, "name": "activation_27", "inbound_nodes": [[["add_8", 0, 0, {}]]], "class_name": "Activation"}, {"config": {"kernel_initializer": {"config": {"mode": "fan_avg", "scale": 1.0, "distribution": "uniform", "dtype": "float32", "seed": null}, "class_name": "VarianceScaling"}, "kernel_size": [1, 1], "dtype": "float32", "dilation_rate": [1, 1], "kernel_constraint": null, "trainable": true, "activation": "linear", "data_format": "channels_last", "activity_regularizer": null, "padding": "valid", "name": "res4c_branch2a", "bias_constraint": null, "filters": 256, "bias_regularizer": null, "use_bias": true, "bias_initializer": {"config": {"dtype": "float32"}, "class_name": "Zeros"}, "kernel_regularizer": null, "strides": [1, 1]}, "name": "res4c_branch2a", "inbound_nodes": [[["activation_27", 0, 0, {}]]], "class_name": "Conv2D"}, {"config": {"gamma_initializer": {"config": {"dtype": "float32"}, "class_name": "Ones"}, "moving_mean_initializer": {"config": {"dtype": "float32"}, "class_name": "Zeros"}, "beta_initializer": {"config": {"dtype": "float32"}, "class_name": "Zeros"}, "beta_regularizer": null, "dtype": "float32", "axis": [3], "moving_variance_initializer": {"config": {"dtype": "float32"}, "class_name": "Ones"}, "trainable": true, "momentum": 0.99, "epsilon": 0.001, "beta_constraint": null, "scale": true, "name": "bn4c_branch2a", "gamma_regularizer": null, "center": true, "gamma_constraint": null}, "name": "bn4c_branch2a", "inbound_nodes": [[["res4c_branch2a", 0, 0, {}]]], "class_name": "BatchNormalization"}, {"config": {"trainable": true, "activation": "relu", "dtype": "float32", "name": "activation_28"}, "name": "activation_28", "inbound_nodes": [[["bn4c_branch2a", 0, 0, {}]]], "class_name": "Activation"}, {"config": {"kernel_initializer": {"config": {"mode": "fan_avg", "scale": 1.0, "distribution": "uniform", "dtype": "float32", "seed": null}, "class_name": "VarianceScaling"}, "kernel_size": [3, 3], "dtype": "float32", "dilation_rate": [1, 1], "kernel_constraint": null, "trainable": true, "activation": "linear", "data_format": "channels_last", "activity_regularizer": null, "padding": "same", "name": "res4c_branch2b", "bias_constraint": null, "filters": 256, "bias_regularizer": null, "use_bias": true, "bias_initializer": {"config": {"dtype": "float32"}, "class_name": "Zeros"}, "kernel_regularizer": null, "strides": [1, 1]}, "name": "res4c_branch2b", "inbound_nodes": [[["activation_28", 0, 0, {}]]], "class_name": "Conv2D"}, {"config": {"gamma_initializer": {"config": {"dtype": "float32"}, "class_name": "Ones"}, "moving_mean_initializer": {"config": {"dtype": "float32"}, "class_name": "Zeros"}, "beta_initializer": {"config": {"dtype": "float32"}, "class_name": "Zeros"}, "beta_regularizer": null, "dtype": "float32", "axis": [3], "moving_variance_initializer": {"config": {"dtype": "float32"}, "class_name": "Ones"}, "trainable": true, "momentum": 0.99, "epsilon": 0.001, "beta_constraint": null, "scale": true, "name": "bn4c_branch2b", "gamma_regularizer": null, "center": true, "gamma_constraint": null}, "name": "bn4c_branch2b", "inbound_nodes": [[["res4c_branch2b", 0, 0, {}]]], "class_name": "BatchNormalization"}, {"config": {"trainable": true, "activation": "relu", "dtype": "float32", "name": "activation_29"}, "name": "activation_29", "inbound_nodes": [[["bn4c_branch2b", 0, 0, {}]]], "class_name": "Activation"}, {"config": {"kernel_initializer": {"config": {"mode": "fan_avg", "scale": 1.0, "distribution": "uniform", "dtype": "float32", "seed": null}, "class_name": "VarianceScaling"}, "kernel_size": [1, 1], "dtype": "float32", "dilation_rate": [1, 1], "kernel_constraint": null, "trainable": true, "activation": "linear", "data_format": "channels_last", "activity_regularizer": null, "padding": "valid", "name": "res4c_branch2c", "bias_constraint": null, "filters": 1024, "bias_regularizer": null, "use_bias": true, "bias_initializer": {"config": {"dtype": "float32"}, "class_name": "Zeros"}, "kernel_regularizer": null, "strides": [1, 1]}, "name": "res4c_branch2c", "inbound_nodes": [[["activation_29", 0, 0, {}]]], "class_name": "Conv2D"}, {"config": {"gamma_initializer": {"config": {"dtype": "float32"}, "class_name": "Ones"}, "moving_mean_initializer": {"config": {"dtype": "float32"}, "class_name": "Zeros"}, "beta_initializer": {"config": {"dtype": "float32"}, "class_name": "Zeros"}, "beta_regularizer": null, "dtype": "float32", "axis": [3], "moving_variance_initializer": {"config": {"dtype": "float32"}, "class_name": "Ones"}, "trainable": true, "momentum": 0.99, "epsilon": 0.001, "beta_constraint": null, "scale": true, "name": "bn4c_branch2c", "gamma_regularizer": null, "center": true, "gamma_constraint": null}, "name": "bn4c_branch2c", "inbound_nodes": [[["res4c_branch2c", 0, 0, {}]]], "class_name": "BatchNormalization"}, {"config": {"trainable": true, "dtype": "float32", "name": "add_9"}, "name": "add_9", "inbound_nodes": [[["bn4c_branch2c", 0, 0, {}], ["activation_27", 0, 0, {}]]], "class_name": "Add"}, {"config": {"trainable": true, "activation": "relu", "dtype": "float32", "name": "activation_30"}, "name": "activation_30", "inbound_nodes": [[["add_9", 0, 0, {}]]], "class_name": "Activation"}, {"config": {"kernel_initializer": {"config": {"mode": "fan_avg", "scale": 1.0, "distribution": "uniform", "dtype": "float32", "seed": null}, "class_name": "VarianceScaling"}, "kernel_size": [1, 1], "dtype": "float32", "dilation_rate": [1, 1], "kernel_constraint": null, "trainable": true, "activation": "linear", "data_format": "channels_last", "activity_regularizer": null, "padding": "valid", "name": "res4d_branch2a", "bias_constraint": null, "filters": 256, "bias_regularizer": null, "use_bias": true, "bias_initializer": {"config": {"dtype": "float32"}, "class_name": "Zeros"}, "kernel_regularizer": null, "strides": [1, 1]}, "name": "res4d_branch2a", "inbound_nodes": [[["activation_30", 0, 0, {}]]], "class_name": "Conv2D"}, {"config": {"gamma_initializer": {"config": {"dtype": "float32"}, "class_name": "Ones"}, "moving_mean_initializer": {"config": {"dtype": "float32"}, "class_name": "Zeros"}, "beta_initializer": {"config": {"dtype": "float32"}, "class_name": "Zeros"}, "beta_regularizer": null, "dtype": "float32", "axis": [3], "moving_variance_initializer": {"config": {"dtype": "float32"}, "class_name": "Ones"}, "trainable": true, "momentum": 0.99, "epsilon": 0.001, "beta_constraint": null, "scale": true, "name": "bn4d_branch2a", "gamma_regularizer": null, "center": true, "gamma_constraint": null}, "name": "bn4d_branch2a", "inbound_nodes": [[["res4d_branch2a", 0, 0, {}]]], "class_name": "BatchNormalization"}, {"config": {"trainable": true, "activation": "relu", "dtype": "float32", "name": "activation_31"}, "name": "activation_31", "inbound_nodes": [[["bn4d_branch2a", 0, 0, {}]]], "class_name": "Activation"}, {"config": {"kernel_initializer": {"config": {"mode": "fan_avg", "scale": 1.0, "distribution": "uniform", "dtype": "float32", "seed": null}, "class_name": "VarianceScaling"}, "kernel_size": [3, 3], "dtype": "float32", "dilation_rate": [1, 1], "kernel_constraint": null, "trainable": true, "activation": "linear", "data_format": "channels_last", "activity_regularizer": null, "padding": "same", "name": "res4d_branch2b", "bias_constraint": null, "filters": 256, "bias_regularizer": null, "use_bias": true, "bias_initializer": {"config": {"dtype": "float32"}, "class_name": "Zeros"}, "kernel_regularizer": null, "strides": [1, 1]}, "name": "res4d_branch2b", "inbound_nodes": [[["activation_31", 0, 0, {}]]], "class_name": "Conv2D"}, {"config": {"gamma_initializer": {"config": {"dtype": "float32"}, "class_name": "Ones"}, "moving_mean_initializer": {"config": {"dtype": "float32"}, "class_name": "Zeros"}, "beta_initializer": {"config": {"dtype": "float32"}, "class_name": "Zeros"}, "beta_regularizer": null, "dtype": "float32", "axis": [3], "moving_variance_initializer": {"config": {"dtype": "float32"}, "class_name": "Ones"}, "trainable": true, "momentum": 0.99, "epsilon": 0.001, "beta_constraint": null, "scale": true, "name": "bn4d_branch2b", "gamma_regularizer": null, "center": true, "gamma_constraint": null}, "name": "bn4d_branch2b", "inbound_nodes": [[["res4d_branch2b", 0, 0, {}]]], "class_name": "BatchNormalization"}, {"config": {"trainable": true, "activation": "relu", "dtype": "float32", "name": "activation_32"}, "name": "activation_32", "inbound_nodes": [[["bn4d_branch2b", 0, 0, {}]]], "class_name": "Activation"}, {"config": {"kernel_initializer": {"config": {"mode": "fan_avg", "scale": 1.0, "distribution": "uniform", "dtype": "float32", "seed": null}, "class_name": "VarianceScaling"}, "kernel_size": [1, 1], "dtype": "float32", "dilation_rate": [1, 1], "kernel_constraint": null, "trainable": true, "activation": "linear", "data_format": "channels_last", "activity_regularizer": null, "padding": "valid", "name": "res4d_branch2c", "bias_constraint": null, "filters": 1024, "bias_regularizer": null, "use_bias": true, "bias_initializer": {"config": {"dtype": "float32"}, "class_name": "Zeros"}, "kernel_regularizer": null, "strides": [1, 1]}, "name": "res4d_branch2c", "inbound_nodes": [[["activation_32", 0, 0, {}]]], "class_name": "Conv2D"}, {"config": {"gamma_initializer": {"config": {"dtype": "float32"}, "class_name": "Ones"}, "moving_mean_initializer": {"config": {"dtype": "float32"}, "class_name": "Zeros"}, "beta_initializer": {"config": {"dtype": "float32"}, "class_name": "Zeros"}, "beta_regularizer": null, "dtype": "float32", "axis": [3], "moving_variance_initializer": {"config": {"dtype": "float32"}, "class_name": "Ones"}, "trainable": true, "momentum": 0.99, "epsilon": 0.001, "beta_constraint": null, "scale": true, "name": "bn4d_branch2c", "gamma_regularizer": null, "center": true, "gamma_constraint": null}, "name": "bn4d_branch2c", "inbound_nodes": [[["res4d_branch2c", 0, 0, {}]]], "class_name": "BatchNormalization"}, {"config": {"trainable": true, "dtype": "float32", "name": "add_10"}, "name": "add_10", "inbound_nodes": [[["bn4d_branch2c", 0, 0, {}], ["activation_30", 0, 0, {}]]], "class_name": "Add"}, {"config": {"trainable": true, "activation": "relu", "dtype": "float32", "name": "activation_33"}, "name": "activation_33", "inbound_nodes": [[["add_10", 0, 0, {}]]], "class_name": "Activation"}, {"config": {"kernel_initializer": {"config": {"mode": "fan_avg", "scale": 1.0, "distribution": "uniform", "dtype": "float32", "seed": null}, "class_name": "VarianceScaling"}, "kernel_size": [1, 1], "dtype": "float32", "dilation_rate": [1, 1], "kernel_constraint": null, "trainable": true, "activation": "linear", "data_format": "channels_last", "activity_regularizer": null, "padding": "valid", "name": "res4e_branch2a", "bias_constraint": null, "filters": 256, "bias_regularizer": null, "use_bias": true, "bias_initializer": {"config": {"dtype": "float32"}, "class_name": "Zeros"}, "kernel_regularizer": null, "strides": [1, 1]}, "name": "res4e_branch2a", "inbound_nodes": [[["activation_33", 0, 0, {}]]], "class_name": "Conv2D"}, {"config": {"gamma_initializer": {"config": {"dtype": "float32"}, "class_name": "Ones"}, "moving_mean_initializer": {"config": {"dtype": "float32"}, "class_name": "Zeros"}, "beta_initializer": {"config": {"dtype": "float32"}, "class_name": "Zeros"}, "beta_regularizer": null, "dtype": "float32", "axis": [3], "moving_variance_initializer": {"config": {"dtype": "float32"}, "class_name": "Ones"}, "trainable": true, "momentum": 0.99, "epsilon": 0.001, "beta_constraint": null, "scale": true, "name": "bn4e_branch2a", "gamma_regularizer": null, "center": true, "gamma_constraint": null}, "name": "bn4e_branch2a", "inbound_nodes": [[["res4e_branch2a", 0, 0, {}]]], "class_name": "BatchNormalization"}, {"config": {"trainable": true, "activation": "relu", "dtype": "float32", "name": "activation_34"}, "name": "activation_34", "inbound_nodes": [[["bn4e_branch2a", 0, 0, {}]]], "class_name": "Activation"}, {"config": {"kernel_initializer": {"config": {"mode": "fan_avg", "scale": 1.0, "distribution": "uniform", "dtype": "float32", "seed": null}, "class_name": "VarianceScaling"}, "kernel_size": [3, 3], "dtype": "float32", "dilation_rate": [1, 1], "kernel_constraint": null, "trainable": true, "activation": "linear", "data_format": "channels_last", "activity_regularizer": null, "padding": "same", "name": "res4e_branch2b", "bias_constraint": null, "filters": 256, "bias_regularizer": null, "use_bias": true, "bias_initializer": {"config": {"dtype": "float32"}, "class_name": "Zeros"}, "kernel_regularizer": null, "strides": [1, 1]}, "name": "res4e_branch2b", "inbound_nodes": [[["activation_34", 0, 0, {}]]], "class_name": "Conv2D"}, {"config": {"gamma_initializer": {"config": {"dtype": "float32"}, "class_name": "Ones"}, "moving_mean_initializer": {"config": {"dtype": "float32"}, "class_name": "Zeros"}, "beta_initializer": {"config": {"dtype": "float32"}, "class_name": "Zeros"}, "beta_regularizer": null, "dtype": "float32", "axis": [3], "moving_variance_initializer": {"config": {"dtype": "float32"}, "class_name": "Ones"}, "trainable": true, "momentum": 0.99, "epsilon": 0.001, "beta_constraint": null, "scale": true, "name": "bn4e_branch2b", "gamma_regularizer": null, "center": true, "gamma_constraint": null}, "name": "bn4e_branch2b", "inbound_nodes": [[["res4e_branch2b", 0, 0, {}]]], "class_name": "BatchNormalization"}, {"config": {"trainable": true, "activation": "relu", "dtype": "float32", "name": "activation_35"}, "name": "activation_35", "inbound_nodes": [[["bn4e_branch2b", 0, 0, {}]]], "class_name": "Activation"}, {"config": {"kernel_initializer": {"config": {"mode": "fan_avg", "scale": 1.0, "distribution": "uniform", "dtype": "float32", "seed": null}, "class_name": "VarianceScaling"}, "kernel_size": [1, 1], "dtype": "float32", "dilation_rate": [1, 1], "kernel_constraint": null, "trainable": true, "activation": "linear", "data_format": "channels_last", "activity_regularizer": null, "padding": "valid", "name": "res4e_branch2c", "bias_constraint": null, "filters": 1024, "bias_regularizer": null, "use_bias": true, "bias_initializer": {"config": {"dtype": "float32"}, "class_name": "Zeros"}, "kernel_regularizer": null, "strides": [1, 1]}, "name": "res4e_branch2c", "inbound_nodes": [[["activation_35", 0, 0, {}]]], "class_name": "Conv2D"}, {"config": {"gamma_initializer": {"config": {"dtype": "float32"}, "class_name": "Ones"}, "moving_mean_initializer": {"config": {"dtype": "float32"}, "class_name": "Zeros"}, "beta_initializer": {"config": {"dtype": "float32"}, "class_name": "Zeros"}, "beta_regularizer": null, "dtype": "float32", "axis": [3], "moving_variance_initializer": {"config": {"dtype": "float32"}, "class_name": "Ones"}, "trainable": true, "momentum": 0.99, "epsilon": 0.001, "beta_constraint": null, "scale": true, "name": "bn4e_branch2c", "gamma_regularizer": null, "center": true, "gamma_constraint": null}, "name": "bn4e_branch2c", "inbound_nodes": [[["res4e_branch2c", 0, 0, {}]]], "class_name": "BatchNormalization"}, {"config": {"trainable": true, "dtype": "float32", "name": "add_11"}, "name": "add_11", "inbound_nodes": [[["bn4e_branch2c", 0, 0, {}], ["activation_33", 0, 0, {}]]], "class_name": "Add"}, {"config": {"trainable": true, "activation": "relu", "dtype": "float32", "name": "activation_36"}, "name": "activation_36", "inbound_nodes": [[["add_11", 0, 0, {}]]], "class_name": "Activation"}, {"config": {"kernel_initializer": {"config": {"mode": "fan_avg", "scale": 1.0, "distribution": "uniform", "dtype": "float32", "seed": null}, "class_name": "VarianceScaling"}, "kernel_size": [1, 1], "dtype": "float32", "dilation_rate": [1, 1], "kernel_constraint": null, "trainable": true, "activation": "linear", "data_format": "channels_last", "activity_regularizer": null, "padding": "valid", "name": "res4f_branch2a", "bias_constraint": null, "filters": 256, "bias_regularizer": null, "use_bias": true, "bias_initializer": {"config": {"dtype": "float32"}, "class_name": "Zeros"}, "kernel_regularizer": null, "strides": [1, 1]}, "name": "res4f_branch2a", "inbound_nodes": [[["activation_36", 0, 0, {}]]], "class_name": "Conv2D"}, {"config": {"gamma_initializer": {"config": {"dtype": "float32"}, "class_name": "Ones"}, "moving_mean_initializer": {"config": {"dtype": "float32"}, "class_name": "Zeros"}, "beta_initializer": {"config": {"dtype": "float32"}, "class_name": "Zeros"}, "beta_regularizer": null, "dtype": "float32", "axis": [3], "moving_variance_initializer": {"config": {"dtype": "float32"}, "class_name": "Ones"}, "trainable": true, "momentum": 0.99, "epsilon": 0.001, "beta_constraint": null, "scale": true, "name": "bn4f_branch2a", "gamma_regularizer": null, "center": true, "gamma_constraint": null}, "name": "bn4f_branch2a", "inbound_nodes": [[["res4f_branch2a", 0, 0, {}]]], "class_name": "BatchNormalization"}, {"config": {"trainable": true, "activation": "relu", "dtype": "float32", "name": "activation_37"}, "name": "activation_37", "inbound_nodes": [[["bn4f_branch2a", 0, 0, {}]]], "class_name": "Activation"}, {"config": {"kernel_initializer": {"config": {"mode": "fan_avg", "scale": 1.0, "distribution": "uniform", "dtype": "float32", "seed": null}, "class_name": "VarianceScaling"}, "kernel_size": [3, 3], "dtype": "float32", "dilation_rate": [1, 1], "kernel_constraint": null, "trainable": true, "activation": "linear", "data_format": "channels_last", "activity_regularizer": null, "padding": "same", "name": "res4f_branch2b", "bias_constraint": null, "filters": 256, "bias_regularizer": null, "use_bias": true, "bias_initializer": {"config": {"dtype": "float32"}, "class_name": "Zeros"}, "kernel_regularizer": null, "strides": [1, 1]}, "name": "res4f_branch2b", "inbound_nodes": [[["activation_37", 0, 0, {}]]], "class_name": "Conv2D"}, {"config": {"gamma_initializer": {"config": {"dtype": "float32"}, "class_name": "Ones"}, "moving_mean_initializer": {"config": {"dtype": "float32"}, "class_name": "Zeros"}, "beta_initializer": {"config": {"dtype": "float32"}, "class_name": "Zeros"}, "beta_regularizer": null, "dtype": "float32", "axis": [3], "moving_variance_initializer": {"config": {"dtype": "float32"}, "class_name": "Ones"}, "trainable": true, "momentum": 0.99, "epsilon": 0.001, "beta_constraint": null, "scale": true, "name": "bn4f_branch2b", "gamma_regularizer": null, "center": true, "gamma_constraint": null}, "name": "bn4f_branch2b", "inbound_nodes": [[["res4f_branch2b", 0, 0, {}]]], "class_name": "BatchNormalization"}, {"config": {"trainable": true, "activation": "relu", "dtype": "float32", "name": "activation_38"}, "name": "activation_38", "inbound_nodes": [[["bn4f_branch2b", 0, 0, {}]]], "class_name": "Activation"}, {"config": {"kernel_initializer": {"config": {"mode": "fan_avg", "scale": 1.0, "distribution": "uniform", "dtype": "float32", "seed": null}, "class_name": "VarianceScaling"}, "kernel_size": [1, 1], "dtype": "float32", "dilation_rate": [1, 1], "kernel_constraint": null, "trainable": true, "activation": "linear", "data_format": "channels_last", "activity_regularizer": null, "padding": "valid", "name": "res4f_branch2c", "bias_constraint": null, "filters": 1024, "bias_regularizer": null, "use_bias": true, "bias_initializer": {"config": {"dtype": "float32"}, "class_name": "Zeros"}, "kernel_regularizer": null, "strides": [1, 1]}, "name": "res4f_branch2c", "inbound_nodes": [[["activation_38", 0, 0, {}]]], "class_name": "Conv2D"}, {"config": {"gamma_initializer": {"config": {"dtype": "float32"}, "class_name": "Ones"}, "moving_mean_initializer": {"config": {"dtype": "float32"}, "class_name": "Zeros"}, "beta_initializer": {"config": {"dtype": "float32"}, "class_name": "Zeros"}, "beta_regularizer": null, "dtype": "float32", "axis": [3], "moving_variance_initializer": {"config": {"dtype": "float32"}, "class_name": "Ones"}, "trainable": true, "momentum": 0.99, "epsilon": 0.001, "beta_constraint": null, "scale": true, "name": "bn4f_branch2c", "gamma_regularizer": null, "center": true, "gamma_constraint": null}, "name": "bn4f_branch2c", "inbound_nodes": [[["res4f_branch2c", 0, 0, {}]]], "class_name": "BatchNormalization"}, {"config": {"trainable": true, "dtype": "float32", "name": "add_12"}, "name": "add_12", "inbound_nodes": [[["bn4f_branch2c", 0, 0, {}], ["activation_36", 0, 0, {}]]], "class_name": "Add"}, {"config": {"trainable": true, "activation": "relu", "dtype": "float32", "name": "activation_39"}, "name": "activation_39", "inbound_nodes": [[["add_12", 0, 0, {}]]], "class_name": "Activation"}, {"config": {"kernel_initializer": {"config": {"mode": "fan_avg", "scale": 1.0, "distribution": "uniform", "dtype": "float32", "seed": null}, "class_name": "VarianceScaling"}, "kernel_size": [1, 1], "dtype": "float32", "dilation_rate": [1, 1], "kernel_constraint": null, "trainable": true, "activation": "linear", "data_format": "channels_last", "activity_regularizer": null, "padding": "valid", "name": "res5a_branch2a", "bias_constraint": null, "filters": 512, "bias_regularizer": null, "use_bias": true, "bias_initializer": {"config": {"dtype": "float32"}, "class_name": "Zeros"}, "kernel_regularizer": null, "strides": [2, 2]}, "name": "res5a_branch2a", "inbound_nodes": [[["activation_39", 0, 0, {}]]], "class_name": "Conv2D"}, {"config": {"gamma_initializer": {"config": {"dtype": "float32"}, "class_name": "Ones"}, "moving_mean_initializer": {"config": {"dtype": "float32"}, "class_name": "Zeros"}, "beta_initializer": {"config": {"dtype": "float32"}, "class_name": "Zeros"}, "beta_regularizer": null, "dtype": "float32", "axis": [3], "moving_variance_initializer": {"config": {"dtype": "float32"}, "class_name": "Ones"}, "trainable": true, "momentum": 0.99, "epsilon": 0.001, "beta_constraint": null, "scale": true, "name": "bn5a_branch2a", "gamma_regularizer": null, "center": true, "gamma_constraint": null}, "name": "bn5a_branch2a", "inbound_nodes": [[["res5a_branch2a", 0, 0, {}]]], "class_name": "BatchNormalization"}, {"config": {"trainable": true, "activation": "relu", "dtype": "float32", "name": "activation_40"}, "name": "activation_40", "inbound_nodes": [[["bn5a_branch2a", 0, 0, {}]]], "class_name": "Activation"}, {"config": {"kernel_initializer": {"config": {"mode": "fan_avg", "scale": 1.0, "distribution": "uniform", "dtype": "float32", "seed": null}, "class_name": "VarianceScaling"}, "kernel_size": [3, 3], "dtype": "float32", "dilation_rate": [1, 1], "kernel_constraint": null, "trainable": true, "activation": "linear", "data_format": "channels_last", "activity_regularizer": null, "padding": "same", "name": "res5a_branch2b", "bias_constraint": null, "filters": 512, "bias_regularizer": null, "use_bias": true, "bias_initializer": {"config": {"dtype": "float32"}, "class_name": "Zeros"}, "kernel_regularizer": null, "strides": [1, 1]}, "name": "res5a_branch2b", "inbound_nodes": [[["activation_40", 0, 0, {}]]], "class_name": "Conv2D"}, {"config": {"gamma_initializer": {"config": {"dtype": "float32"}, "class_name": "Ones"}, "moving_mean_initializer": {"config": {"dtype": "float32"}, "class_name": "Zeros"}, "beta_initializer": {"config": {"dtype": "float32"}, "class_name": "Zeros"}, "beta_regularizer": null, "dtype": "float32", "axis": [3], "moving_variance_initializer": {"config": {"dtype": "float32"}, "class_name": "Ones"}, "trainable": true, "momentum": 0.99, "epsilon": 0.001, "beta_constraint": null, "scale": true, "name": "bn5a_branch2b", "gamma_regularizer": null, "center": true, "gamma_constraint": null}, "name": "bn5a_branch2b", "inbound_nodes": [[["res5a_branch2b", 0, 0, {}]]], "class_name": "BatchNormalization"}, {"config": {"trainable": true, "activation": "relu", "dtype": "float32", "name": "activation_41"}, "name": "activation_41", "inbound_nodes": [[["bn5a_branch2b", 0, 0, {}]]], "class_name": "Activation"}, {"config": {"kernel_initializer": {"config": {"mode": "fan_avg", "scale": 1.0, "distribution": "uniform", "dtype": "float32", "seed": null}, "class_name": "VarianceScaling"}, "kernel_size": [1, 1], "dtype": "float32", "dilation_rate": [1, 1], "kernel_constraint": null, "trainable": true, "activation": "linear", "data_format": "channels_last", "activity_regularizer": null, "padding": "valid", "name": "res5a_branch2c", "bias_constraint": null, "filters": 2048, "bias_regularizer": null, "use_bias": true, "bias_initializer": {"config": {"dtype": "float32"}, "class_name": "Zeros"}, "kernel_regularizer": null, "strides": [1, 1]}, "name": "res5a_branch2c", "inbound_nodes": [[["activation_41", 0, 0, {}]]], "class_name": "Conv2D"}, {"config": {"kernel_initializer": {"config": {"mode": "fan_avg", "scale": 1.0, "distribution": "uniform", "dtype": "float32", "seed": null}, "class_name": "VarianceScaling"}, "kernel_size": [1, 1], "dtype": "float32", "dilation_rate": [1, 1], "kernel_constraint": null, "trainable": true, "activation": "linear", "data_format": "channels_last", "activity_regularizer": null, "padding": "valid", "name": "res5a_branch1", "bias_constraint": null, "filters": 2048, "bias_regularizer": null, "use_bias": true, "bias_initializer": {"config": {"dtype": "float32"}, "class_name": "Zeros"}, "kernel_regularizer": null, "strides": [2, 2]}, "name": "res5a_branch1", "inbound_nodes": [[["activation_39", 0, 0, {}]]], "class_name": "Conv2D"}, {"config": {"gamma_initializer": {"config": {"dtype": "float32"}, "class_name": "Ones"}, "moving_mean_initializer": {"config": {"dtype": "float32"}, "class_name": "Zeros"}, "beta_initializer": {"config": {"dtype": "float32"}, "class_name": "Zeros"}, "beta_regularizer": null, "dtype": "float32", "axis": [3], "moving_variance_initializer": {"config": {"dtype": "float32"}, "class_name": "Ones"}, "trainable": true, "momentum": 0.99, "epsilon": 0.001, "beta_constraint": null, "scale": true, "name": "bn5a_branch2c", "gamma_regularizer": null, "center": true, "gamma_constraint": null}, "name": "bn5a_branch2c", "inbound_nodes": [[["res5a_branch2c", 0, 0, {}]]], "class_name": "BatchNormalization"}, {"config": {"gamma_initializer": {"config": {"dtype": "float32"}, "class_name": "Ones"}, "moving_mean_initializer": {"config": {"dtype": "float32"}, "class_name": "Zeros"}, "beta_initializer": {"config": {"dtype": "float32"}, "class_name": "Zeros"}, "beta_regularizer": null, "dtype": "float32", "axis": [3], "moving_variance_initializer": {"config": {"dtype": "float32"}, "class_name": "Ones"}, "trainable": true, "momentum": 0.99, "epsilon": 0.001, "beta_constraint": null, "scale": true, "name": "bn5a_branch1", "gamma_regularizer": null, "center": true, "gamma_constraint": null}, "name": "bn5a_branch1", "inbound_nodes": [[["res5a_branch1", 0, 0, {}]]], "class_name": "BatchNormalization"}, {"config": {"trainable": true, "dtype": "float32", "name": "add_13"}, "name": "add_13", "inbound_nodes": [[["bn5a_branch2c", 0, 0, {}], ["bn5a_branch1", 0, 0, {}]]], "class_name": "Add"}, {"config": {"trainable": true, "activation": "relu", "dtype": "float32", "name": "activation_42"}, "name": "activation_42", "inbound_nodes": [[["add_13", 0, 0, {}]]], "class_name": "Activation"}, {"config": {"kernel_initializer": {"config": {"mode": "fan_avg", "scale": 1.0, "distribution": "uniform", "dtype": "float32", "seed": null}, "class_name": "VarianceScaling"}, "kernel_size": [1, 1], "dtype": "float32", "dilation_rate": [1, 1], "kernel_constraint": null, "trainable": true, "activation": "linear", "data_format": "channels_last", "activity_regularizer": null, "padding": "valid", "name": "res5b_branch2a", "bias_constraint": null, "filters": 512, "bias_regularizer": null, "use_bias": true, "bias_initializer": {"config": {"dtype": "float32"}, "class_name": "Zeros"}, "kernel_regularizer": null, "strides": [1, 1]}, "name": "res5b_branch2a", "inbound_nodes": [[["activation_42", 0, 0, {}]]], "class_name": "Conv2D"}, {"config": {"gamma_initializer": {"config": {"dtype": "float32"}, "class_name": "Ones"}, "moving_mean_initializer": {"config": {"dtype": "float32"}, "class_name": "Zeros"}, "beta_initializer": {"config": {"dtype": "float32"}, "class_name": "Zeros"}, "beta_regularizer": null, "dtype": "float32", "axis": [3], "moving_variance_initializer": {"config": {"dtype": "float32"}, "class_name": "Ones"}, "trainable": true, "momentum": 0.99, "epsilon": 0.001, "beta_constraint": null, "scale": true, "name": "bn5b_branch2a", "gamma_regularizer": null, "center": true, "gamma_constraint": null}, "name": "bn5b_branch2a", "inbound_nodes": [[["res5b_branch2a", 0, 0, {}]]], "class_name": "BatchNormalization"}, {"config": {"trainable": true, "activation": "relu", "dtype": "float32", "name": "activation_43"}, "name": "activation_43", "inbound_nodes": [[["bn5b_branch2a", 0, 0, {}]]], "class_name": "Activation"}, {"config": {"kernel_initializer": {"config": {"mode": "fan_avg", "scale": 1.0, "distribution": "uniform", "dtype": "float32", "seed": null}, "class_name": "VarianceScaling"}, "kernel_size": [3, 3], "dtype": "float32", "dilation_rate": [1, 1], "kernel_constraint": null, "trainable": true, "activation": "linear", "data_format": "channels_last", "activity_regularizer": null, "padding": "same", "name": "res5b_branch2b", "bias_constraint": null, "filters": 512, "bias_regularizer": null, "use_bias": true, "bias_initializer": {"config": {"dtype": "float32"}, "class_name": "Zeros"}, "kernel_regularizer": null, "strides": [1, 1]}, "name": "res5b_branch2b", "inbound_nodes": [[["activation_43", 0, 0, {}]]], "class_name": "Conv2D"}, {"config": {"gamma_initializer": {"config": {"dtype": "float32"}, "class_name": "Ones"}, "moving_mean_initializer": {"config": {"dtype": "float32"}, "class_name": "Zeros"}, "beta_initializer": {"config": {"dtype": "float32"}, "class_name": "Zeros"}, "beta_regularizer": null, "dtype": "float32", "axis": [3], "moving_variance_initializer": {"config": {"dtype": "float32"}, "class_name": "Ones"}, "trainable": true, "momentum": 0.99, "epsilon": 0.001, "beta_constraint": null, "scale": true, "name": "bn5b_branch2b", "gamma_regularizer": null, "center": true, "gamma_constraint": null}, "name": "bn5b_branch2b", "inbound_nodes": [[["res5b_branch2b", 0, 0, {}]]], "class_name": "BatchNormalization"}, {"config": {"trainable": true, "activation": "relu", "dtype": "float32", "name": "activation_44"}, "name": "activation_44", "inbound_nodes": [[["bn5b_branch2b", 0, 0, {}]]], "class_name": "Activation"}, {"config": {"kernel_initializer": {"config": {"mode": "fan_avg", "scale": 1.0, "distribution": "uniform", "dtype": "float32", "seed": null}, "class_name": "VarianceScaling"}, "kernel_size": [1, 1], "dtype": "float32", "dilation_rate": [1, 1], "kernel_constraint": null, "trainable": true, "activation": "linear", "data_format": "channels_last", "activity_regularizer": null, "padding": "valid", "name": "res5b_branch2c", "bias_constraint": null, "filters": 2048, "bias_regularizer": null, "use_bias": true, "bias_initializer": {"config": {"dtype": "float32"}, "class_name": "Zeros"}, "kernel_regularizer": null, "strides": [1, 1]}, "name": "res5b_branch2c", "inbound_nodes": [[["activation_44", 0, 0, {}]]], "class_name": "Conv2D"}, {"config": {"gamma_initializer": {"config": {"dtype": "float32"}, "class_name": "Ones"}, "moving_mean_initializer": {"config": {"dtype": "float32"}, "class_name": "Zeros"}, "beta_initializer": {"config": {"dtype": "float32"}, "class_name": "Zeros"}, "beta_regularizer": null, "dtype": "float32", "axis": [3], "moving_variance_initializer": {"config": {"dtype": "float32"}, "class_name": "Ones"}, "trainable": true, "momentum": 0.99, "epsilon": 0.001, "beta_constraint": null, "scale": true, "name": "bn5b_branch2c", "gamma_regularizer": null, "center": true, "gamma_constraint": null}, "name": "bn5b_branch2c", "inbound_nodes": [[["res5b_branch2c", 0, 0, {}]]], "class_name": "BatchNormalization"}, {"config": {"trainable": true, "dtype": "float32", "name": "add_14"}, "name": "add_14", "inbound_nodes": [[["bn5b_branch2c", 0, 0, {}], ["activation_42", 0, 0, {}]]], "class_name": "Add"}, {"config": {"trainable": true, "activation": "relu", "dtype": "float32", "name": "activation_45"}, "name": "activation_45", "inbound_nodes": [[["add_14", 0, 0, {}]]], "class_name": "Activation"}, {"config": {"kernel_initializer": {"config": {"mode": "fan_avg", "scale": 1.0, "distribution": "uniform", "dtype": "float32", "seed": null}, "class_name": "VarianceScaling"}, "kernel_size": [1, 1], "dtype": "float32", "dilation_rate": [1, 1], "kernel_constraint": null, "trainable": true, "activation": "linear", "data_format": "channels_last", "activity_regularizer": null, "padding": "valid", "name": "res5c_branch2a", "bias_constraint": null, "filters": 512, "bias_regularizer": null, "use_bias": true, "bias_initializer": {"config": {"dtype": "float32"}, "class_name": "Zeros"}, "kernel_regularizer": null, "strides": [1, 1]}, "name": "res5c_branch2a", "inbound_nodes": [[["activation_45", 0, 0, {}]]], "class_name": "Conv2D"}, {"config": {"gamma_initializer": {"config": {"dtype": "float32"}, "class_name": "Ones"}, "moving_mean_initializer": {"config": {"dtype": "float32"}, "class_name": "Zeros"}, "beta_initializer": {"config": {"dtype": "float32"}, "class_name": "Zeros"}, "beta_regularizer": null, "dtype": "float32", "axis": [3], "moving_variance_initializer": {"config": {"dtype": "float32"}, "class_name": "Ones"}, "trainable": true, "momentum": 0.99, "epsilon": 0.001, "beta_constraint": null, "scale": true, "name": "bn5c_branch2a", "gamma_regularizer": null, "center": true, "gamma_constraint": null}, "name": "bn5c_branch2a", "inbound_nodes": [[["res5c_branch2a", 0, 0, {}]]], "class_name": "BatchNormalization"}, {"config": {"trainable": true, "activation": "relu", "dtype": "float32", "name": "activation_46"}, "name": "activation_46", "inbound_nodes": [[["bn5c_branch2a", 0, 0, {}]]], "class_name": "Activation"}, {"config": {"kernel_initializer": {"config": {"mode": "fan_avg", "scale": 1.0, "distribution": "uniform", "dtype": "float32", "seed": null}, "class_name": "VarianceScaling"}, "kernel_size": [3, 3], "dtype": "float32", "dilation_rate": [1, 1], "kernel_constraint": null, "trainable": true, "activation": "linear", "data_format": "channels_last", "activity_regularizer": null, "padding": "same", "name": "res5c_branch2b", "bias_constraint": null, "filters": 512, "bias_regularizer": null, "use_bias": true, "bias_initializer": {"config": {"dtype": "float32"}, "class_name": "Zeros"}, "kernel_regularizer": null, "strides": [1, 1]}, "name": "res5c_branch2b", "inbound_nodes": [[["activation_46", 0, 0, {}]]], "class_name": "Conv2D"}, {"config": {"gamma_initializer": {"config": {"dtype": "float32"}, "class_name": "Ones"}, "moving_mean_initializer": {"config": {"dtype": "float32"}, "class_name": "Zeros"}, "beta_initializer": {"config": {"dtype": "float32"}, "class_name": "Zeros"}, "beta_regularizer": null, "dtype": "float32", "axis": [3], "moving_variance_initializer": {"config": {"dtype": "float32"}, "class_name": "Ones"}, "trainable": true, "momentum": 0.99, "epsilon": 0.001, "beta_constraint": null, "scale": true, "name": "bn5c_branch2b", "gamma_regularizer": null, "center": true, "gamma_constraint": null}, "name": "bn5c_branch2b", "inbound_nodes": [[["res5c_branch2b", 0, 0, {}]]], "class_name": "BatchNormalization"}, {"config": {"trainable": true, "activation": "relu", "dtype": "float32", "name": "activation_47"}, "name": "activation_47", "inbound_nodes": [[["bn5c_branch2b", 0, 0, {}]]], "class_name": "Activation"}, {"config": {"kernel_initializer": {"config": {"mode": "fan_avg", "scale": 1.0, "distribution": "uniform", "dtype": "float32", "seed": null}, "class_name": "VarianceScaling"}, "kernel_size": [1, 1], "dtype": "float32", "dilation_rate": [1, 1], "kernel_constraint": null, "trainable": true, "activation": "linear", "data_format": "channels_last", "activity_regularizer": null, "padding": "valid", "name": "res5c_branch2c", "bias_constraint": null, "filters": 2048, "bias_regularizer": null, "use_bias": true, "bias_initializer": {"config": {"dtype": "float32"}, "class_name": "Zeros"}, "kernel_regularizer": null, "strides": [1, 1]}, "name": "res5c_branch2c", "inbound_nodes": [[["activation_47", 0, 0, {}]]], "class_name": "Conv2D"}, {"config": {"gamma_initializer": {"config": {"dtype": "float32"}, "class_name": "Ones"}, "moving_mean_initializer": {"config": {"dtype": "float32"}, "class_name": "Zeros"}, "beta_initializer": {"config": {"dtype": "float32"}, "class_name": "Zeros"}, "beta_regularizer": null, "dtype": "float32", "axis": [3], "moving_variance_initializer": {"config": {"dtype": "float32"}, "class_name": "Ones"}, "trainable": true, "momentum": 0.99, "epsilon": 0.001, "beta_constraint": null, "scale": true, "name": "bn5c_branch2c", "gamma_regularizer": null, "center": true, "gamma_constraint": null}, "name": "bn5c_branch2c", "inbound_nodes": [[["res5c_branch2c", 0, 0, {}]]], "class_name": "BatchNormalization"}, {"config": {"trainable": true, "dtype": "float32", "name": "add_15"}, "name": "add_15", "inbound_nodes": [[["bn5c_branch2c", 0, 0, {}], ["activation_45", 0, 0, {}]]], "class_name": "Add"}, {"config": {"trainable": true, "activation": "relu", "dtype": "float32", "name": "activation_48"}, "name": "activation_48", "inbound_nodes": [[["add_15", 0, 0, {}]]], "class_name": "Activation"}, {"config": {"pool_size": [7, 7], "data_format": "channels_last", "dtype": "float32", "name": "avg_pool", "trainable": true, "padding": "valid", "strides": [7, 7]}, "name": "avg_pool", "inbound_nodes": [[["activation_48", 0, 0, {}]]], "class_name": "AveragePooling2D"}, {"config": {"trainable": true, "data_format": "channels_last", "dtype": "float32", "name": "global_average_pooling2d"}, "name": "global_average_pooling2d", "inbound_nodes": [[["avg_pool", 0, 0, {}]]], "class_name": "GlobalAveragePooling2D"}], "output_layers": [["global_average_pooling2d", 0, 0]], "name": "resnet50", "input_layers": [["input_1", 0, 0]]}, "class_name": "Model"}, {"config": {"kernel_initializer": {"config": {"mode": "fan_avg", "scale": 1.0, "distribution": "uniform", "dtype": "float32", "seed": null}, "class_name": "VarianceScaling"}, "dtype": "float32", "trainable": true, "units": 2, "activation": "softmax", "kernel_constraint": null, "activity_regularizer": null, "name": "dense", "bias_constraint": null, "bias_regularizer": null, "kernel_regularizer": null, "use_bias": true, "bias_initializer": {"config": {"dtype": "float32"}, "class_name": "Zeros"}}, "class_name": "Dense"}], "keras_version": "2.1.6-tf", "class_name": "Sequential", "backend": "tensorflow"}